{"format": "graph-model", "generatedBy": "1.13.1", "convertedBy": "TensorFlow.js Converter v1.1.2", "modelTopology": {"node": [{"name": "sub_2", "op": "Placeholder", "attr": {"dtype": {"type": "DT_FLOAT"}, "shape": {"shape": {"dim": [{"size": "1"}, {"size": "-1"}, {"size": "-1"}, {"size": "3"}]}}}}, {"name": "resnet_v1_50/displacement_fwd_2/Conv2D_bias", "op": "Const", "attr": {"value": {"tensor": {"dtype": "DT_FLOAT", "tensorShape": {"dim": [{"size": "32"}]}}}, "dtype": {"type": "DT_FLOAT"}}}, {"name": "resnet_v1_50/displacement_fwd_2/weights", "op": "Const", "attr": {"value": {"tensor": {"dtype": "DT_FLOAT", "tensorShape": {"dim": [{"size": "1"}, {"size": "1"}, {"size": "2048"}, {"size": "32"}]}}}, "dtype": {"type": "DT_FLOAT"}}}, {"name": "resnet_v1_50/block4/unit_3/bottleneck_v1/conv3/Conv2D_bias", "op": "Const", "attr": {"value": {"tensor": {"dtype": "DT_FLOAT", "tensorShape": {"dim": [{"size": "2048"}]}}}, "dtype": {"type": "DT_FLOAT"}}}, {"name": "resnet_v1_50/block4/unit_3/bottleneck_v1/conv3/weights", "op": "Const", "attr": {"value": {"tensor": {"dtype": "DT_FLOAT", "tensorShape": {"dim": [{"size": "1"}, {"size": "1"}, {"size": "512"}, {"size": "2048"}]}}}, "dtype": {"type": "DT_FLOAT"}}}, {"name": "resnet_v1_50/block4/unit_3/bottleneck_v1/conv2/Conv2D_bias", "op": "Const", "attr": {"dtype": {"type": "DT_FLOAT"}, "value": {"tensor": {"dtype": "DT_FLOAT", "tensorShape": {"dim": [{"size": "512"}]}}}}}, {"name": "resnet_v1_50/block4/unit_3/bottleneck_v1/conv2/weights", "op": "Const", "attr": {"value": {"tensor": {"dtype": "DT_FLOAT", "tensorShape": {"dim": [{"size": "3"}, {"size": "3"}, {"size": "512"}, {"size": "512"}]}}}, "dtype": {"type": "DT_FLOAT"}}}, {"name": "resnet_v1_50/block4/unit_3/bottleneck_v1/conv1/Conv2D_bias", "op": "Const", "attr": {"value": {"tensor": {"dtype": "DT_FLOAT", "tensorShape": {"dim": [{"size": "512"}]}}}, "dtype": {"type": "DT_FLOAT"}}}, {"name": "resnet_v1_50/block4/unit_3/bottleneck_v1/conv1/weights", "op": "Const", "attr": {"value": {"tensor": {"dtype": "DT_FLOAT", "tensorShape": {"dim": [{"size": "1"}, {"size": "1"}, {"size": "2048"}, {"size": "512"}]}}}, "dtype": {"type": "DT_FLOAT"}}}, {"name": "resnet_v1_50/block4/unit_2/bottleneck_v1/conv3/Conv2D_bias", "op": "Const", "attr": {"value": {"tensor": {"dtype": "DT_FLOAT", "tensorShape": {"dim": [{"size": "2048"}]}}}, "dtype": {"type": "DT_FLOAT"}}}, {"name": "resnet_v1_50/block4/unit_2/bottleneck_v1/conv3/weights", "op": "Const", "attr": {"value": {"tensor": {"dtype": "DT_FLOAT", "tensorShape": {"dim": [{"size": "1"}, {"size": "1"}, {"size": "512"}, {"size": "2048"}]}}}, "dtype": {"type": "DT_FLOAT"}}}, {"name": "resnet_v1_50/block4/unit_2/bottleneck_v1/conv2/Conv2D_bias", "op": "Const", "attr": {"value": {"tensor": {"dtype": "DT_FLOAT", "tensorShape": {"dim": [{"size": "512"}]}}}, "dtype": {"type": "DT_FLOAT"}}}, {"name": "resnet_v1_50/block4/unit_2/bottleneck_v1/conv2/weights", "op": "Const", "attr": {"value": {"tensor": {"dtype": "DT_FLOAT", "tensorShape": {"dim": [{"size": "3"}, {"size": "3"}, {"size": "512"}, {"size": "512"}]}}}, "dtype": {"type": "DT_FLOAT"}}}, {"name": "resnet_v1_50/block4/unit_2/bottleneck_v1/conv1/Conv2D_bias", "op": "Const", "attr": {"dtype": {"type": "DT_FLOAT"}, "value": {"tensor": {"dtype": "DT_FLOAT", "tensorShape": {"dim": [{"size": "512"}]}}}}}, {"name": "resnet_v1_50/block4/unit_2/bottleneck_v1/conv1/weights", "op": "Const", "attr": {"value": {"tensor": {"dtype": "DT_FLOAT", "tensorShape": {"dim": [{"size": "1"}, {"size": "1"}, {"size": "2048"}, {"size": "512"}]}}}, "dtype": {"type": "DT_FLOAT"}}}, {"name": "resnet_v1_50/block4/unit_1/bottleneck_v1/shortcut/Conv2D_bias", "op": "Const", "attr": {"value": {"tensor": {"dtype": "DT_FLOAT", "tensorShape": {"dim": [{"size": "2048"}]}}}, "dtype": {"type": "DT_FLOAT"}}}, {"name": "resnet_v1_50/block4/unit_1/bottleneck_v1/shortcut/weights", "op": "Const", "attr": {"dtype": {"type": "DT_FLOAT"}, "value": {"tensor": {"dtype": "DT_FLOAT", "tensorShape": {"dim": [{"size": "1"}, {"size": "1"}, {"size": "1024"}, {"size": "2048"}]}}}}}, {"name": "resnet_v1_50/block3/unit_5/bottleneck_v1/conv3/Conv2D_bias", "op": "Const", "attr": {"value": {"tensor": {"dtype": "DT_FLOAT", "tensorShape": {"dim": [{"size": "1024"}]}}}, "dtype": {"type": "DT_FLOAT"}}}, {"name": "resnet_v1_50/block3/unit_5/bottleneck_v1/conv3/weights", "op": "Const", "attr": {"value": {"tensor": {"dtype": "DT_FLOAT", "tensorShape": {"dim": [{"size": "1"}, {"size": "1"}, {"size": "256"}, {"size": "1024"}]}}}, "dtype": {"type": "DT_FLOAT"}}}, {"name": "resnet_v1_50/block3/unit_5/bottleneck_v1/conv2/Conv2D_bias", "op": "Const", "attr": {"value": {"tensor": {"dtype": "DT_FLOAT", "tensorShape": {"dim": [{"size": "256"}]}}}, "dtype": {"type": "DT_FLOAT"}}}, {"name": "resnet_v1_50/block3/unit_5/bottleneck_v1/conv2/weights", "op": "Const", "attr": {"value": {"tensor": {"dtype": "DT_FLOAT", "tensorShape": {"dim": [{"size": "3"}, {"size": "3"}, {"size": "256"}, {"size": "256"}]}}}, "dtype": {"type": "DT_FLOAT"}}}, {"name": "resnet_v1_50/block3/unit_5/bottleneck_v1/conv1/Conv2D_bias", "op": "Const", "attr": {"value": {"tensor": {"dtype": "DT_FLOAT", "tensorShape": {"dim": [{"size": "256"}]}}}, "dtype": {"type": "DT_FLOAT"}}}, {"name": "resnet_v1_50/block3/unit_5/bottleneck_v1/conv1/weights", "op": "Const", "attr": {"value": {"tensor": {"dtype": "DT_FLOAT", "tensorShape": {"dim": [{"size": "1"}, {"size": "1"}, {"size": "1024"}, {"size": "256"}]}}}, "dtype": {"type": "DT_FLOAT"}}}, {"name": "resnet_v1_50/block3/unit_4/bottleneck_v1/conv3/Conv2D_bias", "op": "Const", "attr": {"value": {"tensor": {"dtype": "DT_FLOAT", "tensorShape": {"dim": [{"size": "1024"}]}}}, "dtype": {"type": "DT_FLOAT"}}}, {"name": "resnet_v1_50/block3/unit_4/bottleneck_v1/conv3/weights", "op": "Const", "attr": {"value": {"tensor": {"dtype": "DT_FLOAT", "tensorShape": {"dim": [{"size": "1"}, {"size": "1"}, {"size": "256"}, {"size": "1024"}]}}}, "dtype": {"type": "DT_FLOAT"}}}, {"name": "resnet_v1_50/block3/unit_4/bottleneck_v1/conv2/Conv2D_bias", "op": "Const", "attr": {"value": {"tensor": {"dtype": "DT_FLOAT", "tensorShape": {"dim": [{"size": "256"}]}}}, "dtype": {"type": "DT_FLOAT"}}}, {"name": "resnet_v1_50/block3/unit_4/bottleneck_v1/conv2/weights", "op": "Const", "attr": {"value": {"tensor": {"dtype": "DT_FLOAT", "tensorShape": {"dim": [{"size": "3"}, {"size": "3"}, {"size": "256"}, {"size": "256"}]}}}, "dtype": {"type": "DT_FLOAT"}}}, {"name": "resnet_v1_50/block3/unit_4/bottleneck_v1/conv1/Conv2D_bias", "op": "Const", "attr": {"value": {"tensor": {"dtype": "DT_FLOAT", "tensorShape": {"dim": [{"size": "256"}]}}}, "dtype": {"type": "DT_FLOAT"}}}, {"name": "resnet_v1_50/block3/unit_4/bottleneck_v1/conv1/weights", "op": "Const", "attr": {"value": {"tensor": {"dtype": "DT_FLOAT", "tensorShape": {"dim": [{"size": "1"}, {"size": "1"}, {"size": "1024"}, {"size": "256"}]}}}, "dtype": {"type": "DT_FLOAT"}}}, {"name": "resnet_v1_50/block3/unit_3/bottleneck_v1/conv3/Conv2D_bias", "op": "Const", "attr": {"value": {"tensor": {"dtype": "DT_FLOAT", "tensorShape": {"dim": [{"size": "1024"}]}}}, "dtype": {"type": "DT_FLOAT"}}}, {"name": "resnet_v1_50/block3/unit_3/bottleneck_v1/conv3/weights", "op": "Const", "attr": {"value": {"tensor": {"dtype": "DT_FLOAT", "tensorShape": {"dim": [{"size": "1"}, {"size": "1"}, {"size": "256"}, {"size": "1024"}]}}}, "dtype": {"type": "DT_FLOAT"}}}, {"name": "resnet_v1_50/block3/unit_3/bottleneck_v1/conv2/Conv2D_bias", "op": "Const", "attr": {"value": {"tensor": {"dtype": "DT_FLOAT", "tensorShape": {"dim": [{"size": "256"}]}}}, "dtype": {"type": "DT_FLOAT"}}}, {"name": "resnet_v1_50/block3/unit_3/bottleneck_v1/conv2/weights", "op": "Const", "attr": {"value": {"tensor": {"dtype": "DT_FLOAT", "tensorShape": {"dim": [{"size": "3"}, {"size": "3"}, {"size": "256"}, {"size": "256"}]}}}, "dtype": {"type": "DT_FLOAT"}}}, {"name": "resnet_v1_50/block3/unit_3/bottleneck_v1/conv1/Conv2D_bias", "op": "Const", "attr": {"value": {"tensor": {"dtype": "DT_FLOAT", "tensorShape": {"dim": [{"size": "256"}]}}}, "dtype": {"type": "DT_FLOAT"}}}, {"name": "resnet_v1_50/block3/unit_3/bottleneck_v1/conv1/weights", "op": "Const", "attr": {"value": {"tensor": {"dtype": "DT_FLOAT", "tensorShape": {"dim": [{"size": "1"}, {"size": "1"}, {"size": "1024"}, {"size": "256"}]}}}, "dtype": {"type": "DT_FLOAT"}}}, {"name": "resnet_v1_50/block3/unit_2/bottleneck_v1/conv3/Conv2D_bias", "op": "Const", "attr": {"value": {"tensor": {"dtype": "DT_FLOAT", "tensorShape": {"dim": [{"size": "1024"}]}}}, "dtype": {"type": "DT_FLOAT"}}}, {"name": "resnet_v1_50/block3/unit_2/bottleneck_v1/conv3/weights", "op": "Const", "attr": {"value": {"tensor": {"dtype": "DT_FLOAT", "tensorShape": {"dim": [{"size": "1"}, {"size": "1"}, {"size": "256"}, {"size": "1024"}]}}}, "dtype": {"type": "DT_FLOAT"}}}, {"name": "resnet_v1_50/block3/unit_2/bottleneck_v1/conv2/Conv2D_bias", "op": "Const", "attr": {"value": {"tensor": {"dtype": "DT_FLOAT", "tensorShape": {"dim": [{"size": "256"}]}}}, "dtype": {"type": "DT_FLOAT"}}}, {"name": "resnet_v1_50/block3/unit_2/bottleneck_v1/conv2/weights", "op": "Const", "attr": {"value": {"tensor": {"dtype": "DT_FLOAT", "tensorShape": {"dim": [{"size": "3"}, {"size": "3"}, {"size": "256"}, {"size": "256"}]}}}, "dtype": {"type": "DT_FLOAT"}}}, {"name": "resnet_v1_50/block3/unit_2/bottleneck_v1/conv1/Conv2D_bias", "op": "Const", "attr": {"value": {"tensor": {"dtype": "DT_FLOAT", "tensorShape": {"dim": [{"size": "256"}]}}}, "dtype": {"type": "DT_FLOAT"}}}, {"name": "resnet_v1_50/block3/unit_2/bottleneck_v1/conv1/weights", "op": "Const", "attr": {"value": {"tensor": {"dtype": "DT_FLOAT", "tensorShape": {"dim": [{"size": "1"}, {"size": "1"}, {"size": "1024"}, {"size": "256"}]}}}, "dtype": {"type": "DT_FLOAT"}}}, {"name": "resnet_v1_50/block3/unit_1/bottleneck_v1/shortcut/Conv2D_bias", "op": "Const", "attr": {"value": {"tensor": {"dtype": "DT_FLOAT", "tensorShape": {"dim": [{"size": "1024"}]}}}, "dtype": {"type": "DT_FLOAT"}}}, {"name": "resnet_v1_50/block3/unit_1/bottleneck_v1/shortcut/weights", "op": "Const", "attr": {"value": {"tensor": {"dtype": "DT_FLOAT", "tensorShape": {"dim": [{"size": "1"}, {"size": "1"}, {"size": "512"}, {"size": "1024"}]}}}, "dtype": {"type": "DT_FLOAT"}}}, {"name": "resnet_v1_50/block2/unit_3/bottleneck_v1/conv3/Conv2D_bias", "op": "Const", "attr": {"value": {"tensor": {"dtype": "DT_FLOAT", "tensorShape": {"dim": [{"size": "512"}]}}}, "dtype": {"type": "DT_FLOAT"}}}, {"name": "resnet_v1_50/block2/unit_3/bottleneck_v1/conv3/weights", "op": "Const", "attr": {"value": {"tensor": {"dtype": "DT_FLOAT", "tensorShape": {"dim": [{"size": "1"}, {"size": "1"}, {"size": "128"}, {"size": "512"}]}}}, "dtype": {"type": "DT_FLOAT"}}}, {"name": "resnet_v1_50/block2/unit_3/bottleneck_v1/conv2/Conv2D_bias", "op": "Const", "attr": {"value": {"tensor": {"dtype": "DT_FLOAT", "tensorShape": {"dim": [{"size": "128"}]}}}, "dtype": {"type": "DT_FLOAT"}}}, {"name": "resnet_v1_50/block2/unit_3/bottleneck_v1/conv2/weights", "op": "Const", "attr": {"value": {"tensor": {"dtype": "DT_FLOAT", "tensorShape": {"dim": [{"size": "3"}, {"size": "3"}, {"size": "128"}, {"size": "128"}]}}}, "dtype": {"type": "DT_FLOAT"}}}, {"name": "resnet_v1_50/block2/unit_3/bottleneck_v1/conv1/Conv2D_bias", "op": "Const", "attr": {"value": {"tensor": {"dtype": "DT_FLOAT", "tensorShape": {"dim": [{"size": "128"}]}}}, "dtype": {"type": "DT_FLOAT"}}}, {"name": "resnet_v1_50/block2/unit_3/bottleneck_v1/conv1/weights", "op": "Const", "attr": {"value": {"tensor": {"dtype": "DT_FLOAT", "tensorShape": {"dim": [{"size": "1"}, {"size": "1"}, {"size": "512"}, {"size": "128"}]}}}, "dtype": {"type": "DT_FLOAT"}}}, {"name": "resnet_v1_50/block2/unit_2/bottleneck_v1/conv3/Conv2D_bias", "op": "Const", "attr": {"value": {"tensor": {"dtype": "DT_FLOAT", "tensorShape": {"dim": [{"size": "512"}]}}}, "dtype": {"type": "DT_FLOAT"}}}, {"name": "resnet_v1_50/block2/unit_2/bottleneck_v1/conv3/weights", "op": "Const", "attr": {"value": {"tensor": {"dtype": "DT_FLOAT", "tensorShape": {"dim": [{"size": "1"}, {"size": "1"}, {"size": "128"}, {"size": "512"}]}}}, "dtype": {"type": "DT_FLOAT"}}}, {"name": "resnet_v1_50/block2/unit_2/bottleneck_v1/conv2/Conv2D_bias", "op": "Const", "attr": {"value": {"tensor": {"dtype": "DT_FLOAT", "tensorShape": {"dim": [{"size": "128"}]}}}, "dtype": {"type": "DT_FLOAT"}}}, {"name": "resnet_v1_50/block2/unit_2/bottleneck_v1/conv2/weights", "op": "Const", "attr": {"value": {"tensor": {"dtype": "DT_FLOAT", "tensorShape": {"dim": [{"size": "3"}, {"size": "3"}, {"size": "128"}, {"size": "128"}]}}}, "dtype": {"type": "DT_FLOAT"}}}, {"name": "resnet_v1_50/block2/unit_2/bottleneck_v1/conv1/Conv2D_bias", "op": "Const", "attr": {"value": {"tensor": {"dtype": "DT_FLOAT", "tensorShape": {"dim": [{"size": "128"}]}}}, "dtype": {"type": "DT_FLOAT"}}}, {"name": "resnet_v1_50/block2/unit_2/bottleneck_v1/conv1/weights", "op": "Const", "attr": {"value": {"tensor": {"dtype": "DT_FLOAT", "tensorShape": {"dim": [{"size": "1"}, {"size": "1"}, {"size": "512"}, {"size": "128"}]}}}, "dtype": {"type": "DT_FLOAT"}}}, {"name": "resnet_v1_50/block2/unit_1/bottleneck_v1/shortcut/Conv2D_bias", "op": "Const", "attr": {"value": {"tensor": {"dtype": "DT_FLOAT", "tensorShape": {"dim": [{"size": "512"}]}}}, "dtype": {"type": "DT_FLOAT"}}}, {"name": "resnet_v1_50/block2/unit_1/bottleneck_v1/shortcut/weights", "op": "Const", "attr": {"dtype": {"type": "DT_FLOAT"}, "value": {"tensor": {"dtype": "DT_FLOAT", "tensorShape": {"dim": [{"size": "1"}, {"size": "1"}, {"size": "256"}, {"size": "512"}]}}}}}, {"name": "resnet_v1_50/block1/unit_2/bottleneck_v1/conv3/Conv2D_bias", "op": "Const", "attr": {"dtype": {"type": "DT_FLOAT"}, "value": {"tensor": {"dtype": "DT_FLOAT", "tensorShape": {"dim": [{"size": "256"}]}}}}}, {"name": "resnet_v1_50/block1/unit_2/bottleneck_v1/conv3/weights", "op": "Const", "attr": {"value": {"tensor": {"dtype": "DT_FLOAT", "tensorShape": {"dim": [{"size": "1"}, {"size": "1"}, {"size": "64"}, {"size": "256"}]}}}, "dtype": {"type": "DT_FLOAT"}}}, {"name": "resnet_v1_50/block1/unit_2/bottleneck_v1/conv2/Conv2D_bias", "op": "Const", "attr": {"dtype": {"type": "DT_FLOAT"}, "value": {"tensor": {"dtype": "DT_FLOAT", "tensorShape": {"dim": [{"size": "64"}]}}}}}, {"name": "resnet_v1_50/block1/unit_2/bottleneck_v1/conv2/weights", "op": "Const", "attr": {"value": {"tensor": {"dtype": "DT_FLOAT", "tensorShape": {"dim": [{"size": "3"}, {"size": "3"}, {"size": "64"}, {"size": "64"}]}}}, "dtype": {"type": "DT_FLOAT"}}}, {"name": "resnet_v1_50/block1/unit_2/bottleneck_v1/conv1/Conv2D_bias", "op": "Const", "attr": {"value": {"tensor": {"dtype": "DT_FLOAT", "tensorShape": {"dim": [{"size": "64"}]}}}, "dtype": {"type": "DT_FLOAT"}}}, {"name": "resnet_v1_50/block1/unit_2/bottleneck_v1/conv1/weights", "op": "Const", "attr": {"value": {"tensor": {"dtype": "DT_FLOAT", "tensorShape": {"dim": [{"size": "1"}, {"size": "1"}, {"size": "256"}, {"size": "64"}]}}}, "dtype": {"type": "DT_FLOAT"}}}, {"name": "resnet_v1_50/block1/unit_1/bottleneck_v1/shortcut/Conv2D_bias", "op": "Const", "attr": {"value": {"tensor": {"dtype": "DT_FLOAT", "tensorShape": {"dim": [{"size": "256"}]}}}, "dtype": {"type": "DT_FLOAT"}}}, {"name": "resnet_v1_50/block1/unit_1/bottleneck_v1/shortcut/weights", "op": "Const", "attr": {"value": {"tensor": {"dtype": "DT_FLOAT", "tensorShape": {"dim": [{"size": "1"}, {"size": "1"}, {"size": "64"}, {"size": "256"}]}}}, "dtype": {"type": "DT_FLOAT"}}}, {"name": "resnet_v1_50/Pad_1/paddings", "op": "Const", "attr": {"value": {"tensor": {"dtype": "DT_INT32", "tensorShape": {"dim": [{"size": "4"}, {"size": "2"}]}}}, "dtype": {"type": "DT_INT32"}}}, {"name": "resnet_v1_50/conv1/Conv2D_bias", "op": "Const", "attr": {"dtype": {"type": "DT_FLOAT"}, "value": {"tensor": {"dtype": "DT_FLOAT", "tensorShape": {"dim": [{"size": "64"}]}}}}}, {"name": "resnet_v1_50/conv1/weights", "op": "Const", "attr": {"value": {"tensor": {"dtype": "DT_FLOAT", "tensorShape": {"dim": [{"size": "7"}, {"size": "7"}, {"size": "3"}, {"size": "64"}]}}}, "dtype": {"type": "DT_FLOAT"}}}, {"name": "resnet_v1_50/Pad/paddings", "op": "Const", "attr": {"dtype": {"type": "DT_INT32"}, "value": {"tensor": {"dtype": "DT_INT32", "tensorShape": {"dim": [{"size": "4"}, {"size": "2"}]}}}}}, {"name": "resnet_v1_50/block1/unit_1/bottleneck_v1/conv3/Conv2D_bias", "op": "Const", "attr": {"value": {"tensor": {"dtype": "DT_FLOAT", "tensorShape": {"dim": [{"size": "256"}]}}}, "dtype": {"type": "DT_FLOAT"}}}, {"name": "resnet_v1_50/block1/unit_1/bottleneck_v1/conv3/weights", "op": "Const", "attr": {"value": {"tensor": {"dtype": "DT_FLOAT", "tensorShape": {"dim": [{"size": "1"}, {"size": "1"}, {"size": "64"}, {"size": "256"}]}}}, "dtype": {"type": "DT_FLOAT"}}}, {"name": "resnet_v1_50/block1/unit_1/bottleneck_v1/conv2/Conv2D_bias", "op": "Const", "attr": {"value": {"tensor": {"dtype": "DT_FLOAT", "tensorShape": {"dim": [{"size": "64"}]}}}, "dtype": {"type": "DT_FLOAT"}}}, {"name": "resnet_v1_50/block1/unit_1/bottleneck_v1/conv2/weights", "op": "Const", "attr": {"dtype": {"type": "DT_FLOAT"}, "value": {"tensor": {"dtype": "DT_FLOAT", "tensorShape": {"dim": [{"size": "3"}, {"size": "3"}, {"size": "64"}, {"size": "64"}]}}}}}, {"name": "resnet_v1_50/block1/unit_1/bottleneck_v1/conv1/Conv2D_bias", "op": "Const", "attr": {"value": {"tensor": {"dtype": "DT_FLOAT", "tensorShape": {"dim": [{"size": "64"}]}}}, "dtype": {"type": "DT_FLOAT"}}}, {"name": "resnet_v1_50/block1/unit_1/bottleneck_v1/conv1/weights", "op": "Const", "attr": {"value": {"tensor": {"dtype": "DT_FLOAT", "tensorShape": {"dim": [{"size": "1"}, {"size": "1"}, {"size": "64"}, {"size": "64"}]}}}, "dtype": {"type": "DT_FLOAT"}}}, {"name": "resnet_v1_50/block1/unit_3/bottleneck_v1/conv3/Conv2D_bias", "op": "Const", "attr": {"value": {"tensor": {"dtype": "DT_FLOAT", "tensorShape": {"dim": [{"size": "256"}]}}}, "dtype": {"type": "DT_FLOAT"}}}, {"name": "resnet_v1_50/block1/unit_3/bottleneck_v1/conv3/weights", "op": "Const", "attr": {"value": {"tensor": {"dtype": "DT_FLOAT", "tensorShape": {"dim": [{"size": "1"}, {"size": "1"}, {"size": "64"}, {"size": "256"}]}}}, "dtype": {"type": "DT_FLOAT"}}}, {"name": "resnet_v1_50/block1/unit_3/bottleneck_v1/conv2/Conv2D_bias", "op": "Const", "attr": {"dtype": {"type": "DT_FLOAT"}, "value": {"tensor": {"dtype": "DT_FLOAT", "tensorShape": {"dim": [{"size": "64"}]}}}}}, {"name": "resnet_v1_50/block1/unit_3/bottleneck_v1/conv2/weights", "op": "Const", "attr": {"value": {"tensor": {"dtype": "DT_FLOAT", "tensorShape": {"dim": [{"size": "3"}, {"size": "3"}, {"size": "64"}, {"size": "64"}]}}}, "dtype": {"type": "DT_FLOAT"}}}, {"name": "resnet_v1_50/block1/unit_3/bottleneck_v1/conv1/Conv2D_bias", "op": "Const", "attr": {"value": {"tensor": {"dtype": "DT_FLOAT", "tensorShape": {"dim": [{"size": "64"}]}}}, "dtype": {"type": "DT_FLOAT"}}}, {"name": "resnet_v1_50/block1/unit_3/bottleneck_v1/conv1/weights", "op": "Const", "attr": {"value": {"tensor": {"dtype": "DT_FLOAT", "tensorShape": {"dim": [{"size": "1"}, {"size": "1"}, {"size": "256"}, {"size": "64"}]}}}, "dtype": {"type": "DT_FLOAT"}}}, {"name": "resnet_v1_50/block2/unit_1/bottleneck_v1/conv3/Conv2D_bias", "op": "Const", "attr": {"dtype": {"type": "DT_FLOAT"}, "value": {"tensor": {"dtype": "DT_FLOAT", "tensorShape": {"dim": [{"size": "512"}]}}}}}, {"name": "resnet_v1_50/block2/unit_1/bottleneck_v1/conv3/weights", "op": "Const", "attr": {"value": {"tensor": {"dtype": "DT_FLOAT", "tensorShape": {"dim": [{"size": "1"}, {"size": "1"}, {"size": "128"}, {"size": "512"}]}}}, "dtype": {"type": "DT_FLOAT"}}}, {"name": "resnet_v1_50/block2/unit_1/bottleneck_v1/conv2/Conv2D_bias", "op": "Const", "attr": {"value": {"tensor": {"dtype": "DT_FLOAT", "tensorShape": {"dim": [{"size": "128"}]}}}, "dtype": {"type": "DT_FLOAT"}}}, {"name": "resnet_v1_50/block2/unit_1/bottleneck_v1/conv2/weights", "op": "Const", "attr": {"value": {"tensor": {"dtype": "DT_FLOAT", "tensorShape": {"dim": [{"size": "3"}, {"size": "3"}, {"size": "128"}, {"size": "128"}]}}}, "dtype": {"type": "DT_FLOAT"}}}, {"name": "resnet_v1_50/block2/unit_1/bottleneck_v1/conv1/Conv2D_bias", "op": "Const", "attr": {"value": {"tensor": {"dtype": "DT_FLOAT", "tensorShape": {"dim": [{"size": "128"}]}}}, "dtype": {"type": "DT_FLOAT"}}}, {"name": "resnet_v1_50/block2/unit_1/bottleneck_v1/conv1/weights", "op": "Const", "attr": {"value": {"tensor": {"dtype": "DT_FLOAT", "tensorShape": {"dim": [{"size": "1"}, {"size": "1"}, {"size": "256"}, {"size": "128"}]}}}, "dtype": {"type": "DT_FLOAT"}}}, {"name": "resnet_v1_50/block2/unit_4/bottleneck_v1/conv3/Conv2D_bias", "op": "Const", "attr": {"value": {"tensor": {"dtype": "DT_FLOAT", "tensorShape": {"dim": [{"size": "512"}]}}}, "dtype": {"type": "DT_FLOAT"}}}, {"name": "resnet_v1_50/block2/unit_4/bottleneck_v1/conv3/weights", "op": "Const", "attr": {"dtype": {"type": "DT_FLOAT"}, "value": {"tensor": {"dtype": "DT_FLOAT", "tensorShape": {"dim": [{"size": "1"}, {"size": "1"}, {"size": "128"}, {"size": "512"}]}}}}}, {"name": "resnet_v1_50/block2/unit_4/bottleneck_v1/conv2/Conv2D_bias", "op": "Const", "attr": {"value": {"tensor": {"dtype": "DT_FLOAT", "tensorShape": {"dim": [{"size": "128"}]}}}, "dtype": {"type": "DT_FLOAT"}}}, {"name": "resnet_v1_50/block2/unit_4/bottleneck_v1/conv2/weights", "op": "Const", "attr": {"value": {"tensor": {"dtype": "DT_FLOAT", "tensorShape": {"dim": [{"size": "3"}, {"size": "3"}, {"size": "128"}, {"size": "128"}]}}}, "dtype": {"type": "DT_FLOAT"}}}, {"name": "resnet_v1_50/block2/unit_4/bottleneck_v1/conv1/Conv2D_bias", "op": "Const", "attr": {"value": {"tensor": {"dtype": "DT_FLOAT", "tensorShape": {"dim": [{"size": "128"}]}}}, "dtype": {"type": "DT_FLOAT"}}}, {"name": "resnet_v1_50/block2/unit_4/bottleneck_v1/conv1/weights", "op": "Const", "attr": {"value": {"tensor": {"dtype": "DT_FLOAT", "tensorShape": {"dim": [{"size": "1"}, {"size": "1"}, {"size": "512"}, {"size": "128"}]}}}, "dtype": {"type": "DT_FLOAT"}}}, {"name": "resnet_v1_50/block3/unit_1/bottleneck_v1/conv3/Conv2D_bias", "op": "Const", "attr": {"value": {"tensor": {"dtype": "DT_FLOAT", "tensorShape": {"dim": [{"size": "1024"}]}}}, "dtype": {"type": "DT_FLOAT"}}}, {"name": "resnet_v1_50/block3/unit_1/bottleneck_v1/conv3/weights", "op": "Const", "attr": {"dtype": {"type": "DT_FLOAT"}, "value": {"tensor": {"dtype": "DT_FLOAT", "tensorShape": {"dim": [{"size": "1"}, {"size": "1"}, {"size": "256"}, {"size": "1024"}]}}}}}, {"name": "resnet_v1_50/block3/unit_1/bottleneck_v1/conv2/Conv2D_bias", "op": "Const", "attr": {"value": {"tensor": {"dtype": "DT_FLOAT", "tensorShape": {"dim": [{"size": "256"}]}}}, "dtype": {"type": "DT_FLOAT"}}}, {"name": "resnet_v1_50/block3/unit_1/bottleneck_v1/conv2/weights", "op": "Const", "attr": {"value": {"tensor": {"dtype": "DT_FLOAT", "tensorShape": {"dim": [{"size": "3"}, {"size": "3"}, {"size": "256"}, {"size": "256"}]}}}, "dtype": {"type": "DT_FLOAT"}}}, {"name": "resnet_v1_50/block3/unit_1/bottleneck_v1/conv1/Conv2D_bias", "op": "Const", "attr": {"value": {"tensor": {"dtype": "DT_FLOAT", "tensorShape": {"dim": [{"size": "256"}]}}}, "dtype": {"type": "DT_FLOAT"}}}, {"name": "resnet_v1_50/block3/unit_1/bottleneck_v1/conv1/weights", "op": "Const", "attr": {"value": {"tensor": {"dtype": "DT_FLOAT", "tensorShape": {"dim": [{"size": "1"}, {"size": "1"}, {"size": "512"}, {"size": "256"}]}}}, "dtype": {"type": "DT_FLOAT"}}}, {"name": "resnet_v1_50/block3/unit_6/bottleneck_v1/conv3/Conv2D_bias", "op": "Const", "attr": {"value": {"tensor": {"dtype": "DT_FLOAT", "tensorShape": {"dim": [{"size": "1024"}]}}}, "dtype": {"type": "DT_FLOAT"}}}, {"name": "resnet_v1_50/block3/unit_6/bottleneck_v1/conv3/weights", "op": "Const", "attr": {"dtype": {"type": "DT_FLOAT"}, "value": {"tensor": {"dtype": "DT_FLOAT", "tensorShape": {"dim": [{"size": "1"}, {"size": "1"}, {"size": "256"}, {"size": "1024"}]}}}}}, {"name": "resnet_v1_50/block3/unit_6/bottleneck_v1/conv2/Conv2D_bias", "op": "Const", "attr": {"value": {"tensor": {"dtype": "DT_FLOAT", "tensorShape": {"dim": [{"size": "256"}]}}}, "dtype": {"type": "DT_FLOAT"}}}, {"name": "resnet_v1_50/block3/unit_6/bottleneck_v1/conv2/weights", "op": "Const", "attr": {"value": {"tensor": {"dtype": "DT_FLOAT", "tensorShape": {"dim": [{"size": "3"}, {"size": "3"}, {"size": "256"}, {"size": "256"}]}}}, "dtype": {"type": "DT_FLOAT"}}}, {"name": "resnet_v1_50/block3/unit_6/bottleneck_v1/conv1/Conv2D_bias", "op": "Const", "attr": {"value": {"tensor": {"dtype": "DT_FLOAT", "tensorShape": {"dim": [{"size": "256"}]}}}, "dtype": {"type": "DT_FLOAT"}}}, {"name": "resnet_v1_50/block3/unit_6/bottleneck_v1/conv1/weights", "op": "Const", "attr": {"value": {"tensor": {"dtype": "DT_FLOAT", "tensorShape": {"dim": [{"size": "1"}, {"size": "1"}, {"size": "1024"}, {"size": "256"}]}}}, "dtype": {"type": "DT_FLOAT"}}}, {"name": "resnet_v1_50/block4/unit_1/bottleneck_v1/conv3/Conv2D_bias", "op": "Const", "attr": {"value": {"tensor": {"dtype": "DT_FLOAT", "tensorShape": {"dim": [{"size": "2048"}]}}}, "dtype": {"type": "DT_FLOAT"}}}, {"name": "resnet_v1_50/block4/unit_1/bottleneck_v1/conv3/weights", "op": "Const", "attr": {"value": {"tensor": {"dtype": "DT_FLOAT", "tensorShape": {"dim": [{"size": "1"}, {"size": "1"}, {"size": "512"}, {"size": "2048"}]}}}, "dtype": {"type": "DT_FLOAT"}}}, {"name": "resnet_v1_50/block4/unit_1/bottleneck_v1/conv2/Conv2D_bias", "op": "Const", "attr": {"value": {"tensor": {"dtype": "DT_FLOAT", "tensorShape": {"dim": [{"size": "512"}]}}}, "dtype": {"type": "DT_FLOAT"}}}, {"name": "resnet_v1_50/block4/unit_1/bottleneck_v1/conv2/weights", "op": "Const", "attr": {"value": {"tensor": {"dtype": "DT_FLOAT", "tensorShape": {"dim": [{"size": "3"}, {"size": "3"}, {"size": "512"}, {"size": "512"}]}}}, "dtype": {"type": "DT_FLOAT"}}}, {"name": "resnet_v1_50/block4/unit_1/bottleneck_v1/conv1/Conv2D_bias", "op": "Const", "attr": {"value": {"tensor": {"dtype": "DT_FLOAT", "tensorShape": {"dim": [{"size": "512"}]}}}, "dtype": {"type": "DT_FLOAT"}}}, {"name": "resnet_v1_50/block4/unit_1/bottleneck_v1/conv1/weights", "op": "Const", "attr": {"dtype": {"type": "DT_FLOAT"}, "value": {"tensor": {"dtype": "DT_FLOAT", "tensorShape": {"dim": [{"size": "1"}, {"size": "1"}, {"size": "1024"}, {"size": "512"}]}}}}}, {"name": "resnet_v1_50/displacement_bwd_2/Conv2D_bias", "op": "Const", "attr": {"value": {"tensor": {"dtype": "DT_FLOAT", "tensorShape": {"dim": [{"size": "32"}]}}}, "dtype": {"type": "DT_FLOAT"}}}, {"name": "resnet_v1_50/displacement_bwd_2/weights", "op": "Const", "attr": {"value": {"tensor": {"dtype": "DT_FLOAT", "tensorShape": {"dim": [{"size": "1"}, {"size": "1"}, {"size": "2048"}, {"size": "32"}]}}}, "dtype": {"type": "DT_FLOAT"}}}, {"name": "resnet_v1_50/offset_2/Conv2D_bias", "op": "Const", "attr": {"value": {"tensor": {"dtype": "DT_FLOAT", "tensorShape": {"dim": [{"size": "34"}]}}}, "dtype": {"type": "DT_FLOAT"}}}, {"name": "resnet_v1_50/offset_2/weights", "op": "Const", "attr": {"value": {"tensor": {"dtype": "DT_FLOAT", "tensorShape": {"dim": [{"size": "1"}, {"size": "1"}, {"size": "2048"}, {"size": "34"}]}}}, "dtype": {"type": "DT_FLOAT"}}}, {"name": "resnet_v1_50/heatmap_2/Conv2D_bias", "op": "Const", "attr": {"value": {"tensor": {"dtype": "DT_FLOAT", "tensorShape": {"dim": [{"size": "17"}]}}}, "dtype": {"type": "DT_FLOAT"}}}, {"name": "resnet_v1_50/heatmap_2/weights", "op": "Const", "attr": {"value": {"tensor": {"dtype": "DT_FLOAT", "tensorShape": {"dim": [{"size": "1"}, {"size": "1"}, {"size": "2048"}, {"size": "17"}]}}}, "dtype": {"type": "DT_FLOAT"}}}, {"name": "resnet_v1_50/Pad", "op": "Pad", "input": ["sub_2", "resnet_v1_50/Pad/paddings"], "attr": {"T": {"type": "DT_FLOAT"}, "Tpaddings": {"type": "DT_INT32"}}}, {"name": "resnet_v1_50/conv1/BatchNorm/batchnorm_1/add_1/conv", "op": "Conv2D", "input": ["resnet_v1_50/Pad", "resnet_v1_50/conv1/weights"], "attr": {"dilations": {"list": {"i": ["1", "1", "1", "1"]}}, "T": {"type": "DT_FLOAT"}, "data_format": {"s": "TkhXQw=="}, "strides": {"list": {"i": ["1", "2", "2", "1"]}}, "explicit_paddings": {"list": {}}, "use_cudnn_on_gpu": {"b": true}, "padding": {"s": "VkFMSUQ="}}}, {"name": "resnet_v1_50/conv1/BatchNorm/batchnorm_1/add_1", "op": "BiasAdd", "input": ["resnet_v1_50/conv1/BatchNorm/batchnorm_1/add_1/conv", "resnet_v1_50/conv1/Conv2D_bias"], "attr": {"T": {"type": "DT_FLOAT"}, "data_format": {"s": "TkhXQw=="}}}, {"name": "resnet_v1_50/conv1/Relu", "op": "Relu", "input": ["resnet_v1_50/conv1/BatchNorm/batchnorm_1/add_1"], "attr": {"T": {"type": "DT_FLOAT"}}}, {"name": "resnet_v1_50/Pad_1", "op": "Pad", "input": ["resnet_v1_50/conv1/Relu", "resnet_v1_50/Pad_1/paddings"], "attr": {"T": {"type": "DT_FLOAT"}, "Tpaddings": {"type": "DT_INT32"}}}, {"name": "resnet_v1_50/pool1/MaxPool", "op": "MaxPool", "input": ["resnet_v1_50/Pad_1"], "attr": {"data_format": {"s": "TkhXQw=="}, "strides": {"list": {"i": ["1", "2", "2", "1"]}}, "ksize": {"list": {"i": ["1", "3", "3", "1"]}}, "padding": {"s": "VkFMSUQ="}, "T": {"type": "DT_FLOAT"}}}, {"name": "resnet_v1_50/block1/unit_1/bottleneck_v1/shortcut/BatchNorm/batchnorm_1/add_1/conv", "op": "Conv2D", "input": ["resnet_v1_50/pool1/MaxPool", "resnet_v1_50/block1/unit_1/bottleneck_v1/shortcut/weights"], "attr": {"dilations": {"list": {"i": ["1", "1", "1", "1"]}}, "T": {"type": "DT_FLOAT"}, "strides": {"list": {"i": ["1", "1", "1", "1"]}}, "data_format": {"s": "TkhXQw=="}, "use_cudnn_on_gpu": {"b": true}, "explicit_paddings": {"list": {}}, "padding": {"s": "U0FNRQ=="}}}, {"name": "resnet_v1_50/block1/unit_1/bottleneck_v1/conv1/BatchNorm/batchnorm_1/add_1/conv", "op": "Conv2D", "input": ["resnet_v1_50/pool1/MaxPool", "resnet_v1_50/block1/unit_1/bottleneck_v1/conv1/weights"], "attr": {"padding": {"s": "U0FNRQ=="}, "dilations": {"list": {"i": ["1", "1", "1", "1"]}}, "T": {"type": "DT_FLOAT"}, "strides": {"list": {"i": ["1", "1", "1", "1"]}}, "data_format": {"s": "TkhXQw=="}, "use_cudnn_on_gpu": {"b": true}, "explicit_paddings": {"list": {}}}}, {"name": "resnet_v1_50/block1/unit_1/bottleneck_v1/shortcut/BatchNorm/batchnorm_1/add_1", "op": "BiasAdd", "input": ["resnet_v1_50/block1/unit_1/bottleneck_v1/shortcut/BatchNorm/batchnorm_1/add_1/conv", "resnet_v1_50/block1/unit_1/bottleneck_v1/shortcut/Conv2D_bias"], "attr": {"T": {"type": "DT_FLOAT"}, "data_format": {"s": "TkhXQw=="}}}, {"name": "resnet_v1_50/block1/unit_1/bottleneck_v1/conv1/BatchNorm/batchnorm_1/add_1", "op": "BiasAdd", "input": ["resnet_v1_50/block1/unit_1/bottleneck_v1/conv1/BatchNorm/batchnorm_1/add_1/conv", "resnet_v1_50/block1/unit_1/bottleneck_v1/conv1/Conv2D_bias"], "attr": {"T": {"type": "DT_FLOAT"}, "data_format": {"s": "TkhXQw=="}}}, {"name": "resnet_v1_50/block1/unit_1/bottleneck_v1/conv1/Relu", "op": "Relu", "input": ["resnet_v1_50/block1/unit_1/bottleneck_v1/conv1/BatchNorm/batchnorm_1/add_1"], "attr": {"T": {"type": "DT_FLOAT"}}}, {"name": "resnet_v1_50/block1/unit_1/bottleneck_v1/conv2/BatchNorm/batchnorm_1/add_1/conv", "op": "Conv2D", "input": ["resnet_v1_50/block1/unit_1/bottleneck_v1/conv1/Relu", "resnet_v1_50/block1/unit_1/bottleneck_v1/conv2/weights"], "attr": {"dilations": {"list": {"i": ["1", "1", "1", "1"]}}, "T": {"type": "DT_FLOAT"}, "data_format": {"s": "TkhXQw=="}, "strides": {"list": {"i": ["1", "1", "1", "1"]}}, "explicit_paddings": {"list": {}}, "use_cudnn_on_gpu": {"b": true}, "padding": {"s": "U0FNRQ=="}}}, {"name": "resnet_v1_50/block1/unit_1/bottleneck_v1/conv2/BatchNorm/batchnorm_1/add_1", "op": "BiasAdd", "input": ["resnet_v1_50/block1/unit_1/bottleneck_v1/conv2/BatchNorm/batchnorm_1/add_1/conv", "resnet_v1_50/block1/unit_1/bottleneck_v1/conv2/Conv2D_bias"], "attr": {"T": {"type": "DT_FLOAT"}, "data_format": {"s": "TkhXQw=="}}}, {"name": "resnet_v1_50/block1/unit_1/bottleneck_v1/conv2/Relu", "op": "Relu", "input": ["resnet_v1_50/block1/unit_1/bottleneck_v1/conv2/BatchNorm/batchnorm_1/add_1"], "attr": {"T": {"type": "DT_FLOAT"}}}, {"name": "resnet_v1_50/block1/unit_1/bottleneck_v1/conv3/BatchNorm/batchnorm_1/add_1/conv", "op": "Conv2D", "input": ["resnet_v1_50/block1/unit_1/bottleneck_v1/conv2/Relu", "resnet_v1_50/block1/unit_1/bottleneck_v1/conv3/weights"], "attr": {"dilations": {"list": {"i": ["1", "1", "1", "1"]}}, "T": {"type": "DT_FLOAT"}, "data_format": {"s": "TkhXQw=="}, "strides": {"list": {"i": ["1", "1", "1", "1"]}}, "use_cudnn_on_gpu": {"b": true}, "explicit_paddings": {"list": {}}, "padding": {"s": "U0FNRQ=="}}}, {"name": "resnet_v1_50/block1/unit_1/bottleneck_v1/conv3/BatchNorm/batchnorm_1/add_1", "op": "BiasAdd", "input": ["resnet_v1_50/block1/unit_1/bottleneck_v1/conv3/BatchNorm/batchnorm_1/add_1/conv", "resnet_v1_50/block1/unit_1/bottleneck_v1/conv3/Conv2D_bias"], "attr": {"T": {"type": "DT_FLOAT"}, "data_format": {"s": "TkhXQw=="}}}, {"name": "resnet_v1_50/block1/unit_1/bottleneck_v1/add", "op": "Add", "input": ["resnet_v1_50/block1/unit_1/bottleneck_v1/conv3/BatchNorm/batchnorm_1/add_1", "resnet_v1_50/block1/unit_1/bottleneck_v1/shortcut/BatchNorm/batchnorm_1/add_1"], "attr": {"T": {"type": "DT_FLOAT"}}}, {"name": "resnet_v1_50/block1/unit_1/bottleneck_v1/Relu", "op": "Relu", "input": ["resnet_v1_50/block1/unit_1/bottleneck_v1/add"], "attr": {"T": {"type": "DT_FLOAT"}}}, {"name": "resnet_v1_50/block1/unit_2/bottleneck_v1/conv1/BatchNorm/batchnorm_1/add_1/conv", "op": "Conv2D", "input": ["resnet_v1_50/block1/unit_1/bottleneck_v1/Relu", "resnet_v1_50/block1/unit_2/bottleneck_v1/conv1/weights"], "attr": {"dilations": {"list": {"i": ["1", "1", "1", "1"]}}, "T": {"type": "DT_FLOAT"}, "data_format": {"s": "TkhXQw=="}, "strides": {"list": {"i": ["1", "1", "1", "1"]}}, "use_cudnn_on_gpu": {"b": true}, "explicit_paddings": {"list": {}}, "padding": {"s": "U0FNRQ=="}}}, {"name": "resnet_v1_50/block1/unit_2/bottleneck_v1/conv1/BatchNorm/batchnorm_1/add_1", "op": "BiasAdd", "input": ["resnet_v1_50/block1/unit_2/bottleneck_v1/conv1/BatchNorm/batchnorm_1/add_1/conv", "resnet_v1_50/block1/unit_2/bottleneck_v1/conv1/Conv2D_bias"], "attr": {"T": {"type": "DT_FLOAT"}, "data_format": {"s": "TkhXQw=="}}}, {"name": "resnet_v1_50/block1/unit_2/bottleneck_v1/conv1/Relu", "op": "Relu", "input": ["resnet_v1_50/block1/unit_2/bottleneck_v1/conv1/BatchNorm/batchnorm_1/add_1"], "attr": {"T": {"type": "DT_FLOAT"}}}, {"name": "resnet_v1_50/block1/unit_2/bottleneck_v1/conv2/BatchNorm/batchnorm_1/add_1/conv", "op": "Conv2D", "input": ["resnet_v1_50/block1/unit_2/bottleneck_v1/conv1/Relu", "resnet_v1_50/block1/unit_2/bottleneck_v1/conv2/weights"], "attr": {"dilations": {"list": {"i": ["1", "1", "1", "1"]}}, "T": {"type": "DT_FLOAT"}, "data_format": {"s": "TkhXQw=="}, "strides": {"list": {"i": ["1", "1", "1", "1"]}}, "explicit_paddings": {"list": {}}, "use_cudnn_on_gpu": {"b": true}, "padding": {"s": "U0FNRQ=="}}}, {"name": "resnet_v1_50/block1/unit_2/bottleneck_v1/conv2/BatchNorm/batchnorm_1/add_1", "op": "BiasAdd", "input": ["resnet_v1_50/block1/unit_2/bottleneck_v1/conv2/BatchNorm/batchnorm_1/add_1/conv", "resnet_v1_50/block1/unit_2/bottleneck_v1/conv2/Conv2D_bias"], "attr": {"T": {"type": "DT_FLOAT"}, "data_format": {"s": "TkhXQw=="}}}, {"name": "resnet_v1_50/block1/unit_2/bottleneck_v1/conv2/Relu", "op": "Relu", "input": ["resnet_v1_50/block1/unit_2/bottleneck_v1/conv2/BatchNorm/batchnorm_1/add_1"], "attr": {"T": {"type": "DT_FLOAT"}}}, {"name": "resnet_v1_50/block1/unit_2/bottleneck_v1/conv3/BatchNorm/batchnorm_1/add_1/conv", "op": "Conv2D", "input": ["resnet_v1_50/block1/unit_2/bottleneck_v1/conv2/Relu", "resnet_v1_50/block1/unit_2/bottleneck_v1/conv3/weights"], "attr": {"strides": {"list": {"i": ["1", "1", "1", "1"]}}, "data_format": {"s": "TkhXQw=="}, "use_cudnn_on_gpu": {"b": true}, "explicit_paddings": {"list": {}}, "padding": {"s": "U0FNRQ=="}, "dilations": {"list": {"i": ["1", "1", "1", "1"]}}, "T": {"type": "DT_FLOAT"}}}, {"name": "resnet_v1_50/block1/unit_2/bottleneck_v1/conv3/BatchNorm/batchnorm_1/add_1", "op": "BiasAdd", "input": ["resnet_v1_50/block1/unit_2/bottleneck_v1/conv3/BatchNorm/batchnorm_1/add_1/conv", "resnet_v1_50/block1/unit_2/bottleneck_v1/conv3/Conv2D_bias"], "attr": {"T": {"type": "DT_FLOAT"}, "data_format": {"s": "TkhXQw=="}}}, {"name": "resnet_v1_50/block1/unit_2/bottleneck_v1/add", "op": "Add", "input": ["resnet_v1_50/block1/unit_1/bottleneck_v1/Relu", "resnet_v1_50/block1/unit_2/bottleneck_v1/conv3/BatchNorm/batchnorm_1/add_1"], "attr": {"T": {"type": "DT_FLOAT"}}}, {"name": "resnet_v1_50/block1/unit_2/bottleneck_v1/Relu", "op": "Relu", "input": ["resnet_v1_50/block1/unit_2/bottleneck_v1/add"], "attr": {"T": {"type": "DT_FLOAT"}}}, {"name": "resnet_v1_50/block1/unit_3/bottleneck_v1/shortcut/MaxPool", "op": "MaxPool", "input": ["resnet_v1_50/block1/unit_2/bottleneck_v1/Relu"], "attr": {"T": {"type": "DT_FLOAT"}, "data_format": {"s": "TkhXQw=="}, "strides": {"list": {"i": ["1", "2", "2", "1"]}}, "ksize": {"list": {"i": ["1", "1", "1", "1"]}}, "padding": {"s": "U0FNRQ=="}}}, {"name": "resnet_v1_50/block1/unit_3/bottleneck_v1/conv1/BatchNorm/batchnorm_1/add_1/conv", "op": "Conv2D", "input": ["resnet_v1_50/block1/unit_2/bottleneck_v1/Relu", "resnet_v1_50/block1/unit_3/bottleneck_v1/conv1/weights"], "attr": {"dilations": {"list": {"i": ["1", "1", "1", "1"]}}, "T": {"type": "DT_FLOAT"}, "strides": {"list": {"i": ["1", "1", "1", "1"]}}, "data_format": {"s": "TkhXQw=="}, "explicit_paddings": {"list": {}}, "use_cudnn_on_gpu": {"b": true}, "padding": {"s": "U0FNRQ=="}}}, {"name": "resnet_v1_50/block1/unit_3/bottleneck_v1/conv1/BatchNorm/batchnorm_1/add_1", "op": "BiasAdd", "input": ["resnet_v1_50/block1/unit_3/bottleneck_v1/conv1/BatchNorm/batchnorm_1/add_1/conv", "resnet_v1_50/block1/unit_3/bottleneck_v1/conv1/Conv2D_bias"], "attr": {"data_format": {"s": "TkhXQw=="}, "T": {"type": "DT_FLOAT"}}}, {"name": "resnet_v1_50/block1/unit_3/bottleneck_v1/conv1/Relu", "op": "Relu", "input": ["resnet_v1_50/block1/unit_3/bottleneck_v1/conv1/BatchNorm/batchnorm_1/add_1"], "attr": {"T": {"type": "DT_FLOAT"}}}, {"name": "resnet_v1_50/block1/unit_3/bottleneck_v1/Pad", "op": "Pad", "input": ["resnet_v1_50/block1/unit_3/bottleneck_v1/conv1/Relu", "resnet_v1_50/Pad_1/paddings"], "attr": {"T": {"type": "DT_FLOAT"}, "Tpaddings": {"type": "DT_INT32"}}}, {"name": "resnet_v1_50/block1/unit_3/bottleneck_v1/conv2/BatchNorm/batchnorm_1/add_1/conv", "op": "Conv2D", "input": ["resnet_v1_50/block1/unit_3/bottleneck_v1/Pad", "resnet_v1_50/block1/unit_3/bottleneck_v1/conv2/weights"], "attr": {"dilations": {"list": {"i": ["1", "1", "1", "1"]}}, "T": {"type": "DT_FLOAT"}, "strides": {"list": {"i": ["1", "2", "2", "1"]}}, "data_format": {"s": "TkhXQw=="}, "explicit_paddings": {"list": {}}, "use_cudnn_on_gpu": {"b": true}, "padding": {"s": "VkFMSUQ="}}}, {"name": "resnet_v1_50/block1/unit_3/bottleneck_v1/conv2/BatchNorm/batchnorm_1/add_1", "op": "BiasAdd", "input": ["resnet_v1_50/block1/unit_3/bottleneck_v1/conv2/BatchNorm/batchnorm_1/add_1/conv", "resnet_v1_50/block1/unit_3/bottleneck_v1/conv2/Conv2D_bias"], "attr": {"T": {"type": "DT_FLOAT"}, "data_format": {"s": "TkhXQw=="}}}, {"name": "resnet_v1_50/block1/unit_3/bottleneck_v1/conv2/Relu", "op": "Relu", "input": ["resnet_v1_50/block1/unit_3/bottleneck_v1/conv2/BatchNorm/batchnorm_1/add_1"], "attr": {"T": {"type": "DT_FLOAT"}}}, {"name": "resnet_v1_50/block1/unit_3/bottleneck_v1/conv3/BatchNorm/batchnorm_1/add_1/conv", "op": "Conv2D", "input": ["resnet_v1_50/block1/unit_3/bottleneck_v1/conv2/Relu", "resnet_v1_50/block1/unit_3/bottleneck_v1/conv3/weights"], "attr": {"dilations": {"list": {"i": ["1", "1", "1", "1"]}}, "T": {"type": "DT_FLOAT"}, "data_format": {"s": "TkhXQw=="}, "strides": {"list": {"i": ["1", "1", "1", "1"]}}, "use_cudnn_on_gpu": {"b": true}, "explicit_paddings": {"list": {}}, "padding": {"s": "U0FNRQ=="}}}, {"name": "resnet_v1_50/block1/unit_3/bottleneck_v1/conv3/BatchNorm/batchnorm_1/add_1", "op": "BiasAdd", "input": ["resnet_v1_50/block1/unit_3/bottleneck_v1/conv3/BatchNorm/batchnorm_1/add_1/conv", "resnet_v1_50/block1/unit_3/bottleneck_v1/conv3/Conv2D_bias"], "attr": {"T": {"type": "DT_FLOAT"}, "data_format": {"s": "TkhXQw=="}}}, {"name": "resnet_v1_50/block1/unit_3/bottleneck_v1/add", "op": "Add", "input": ["resnet_v1_50/block1/unit_3/bottleneck_v1/conv3/BatchNorm/batchnorm_1/add_1", "resnet_v1_50/block1/unit_3/bottleneck_v1/shortcut/MaxPool"], "attr": {"T": {"type": "DT_FLOAT"}}}, {"name": "resnet_v1_50/block1/unit_3/bottleneck_v1/Relu", "op": "Relu", "input": ["resnet_v1_50/block1/unit_3/bottleneck_v1/add"], "attr": {"T": {"type": "DT_FLOAT"}}}, {"name": "resnet_v1_50/block2/unit_1/bottleneck_v1/shortcut/BatchNorm/batchnorm_1/add_1/conv", "op": "Conv2D", "input": ["resnet_v1_50/block1/unit_3/bottleneck_v1/Relu", "resnet_v1_50/block2/unit_1/bottleneck_v1/shortcut/weights"], "attr": {"dilations": {"list": {"i": ["1", "1", "1", "1"]}}, "T": {"type": "DT_FLOAT"}, "data_format": {"s": "TkhXQw=="}, "strides": {"list": {"i": ["1", "1", "1", "1"]}}, "explicit_paddings": {"list": {}}, "use_cudnn_on_gpu": {"b": true}, "padding": {"s": "U0FNRQ=="}}}, {"name": "resnet_v1_50/block2/unit_1/bottleneck_v1/conv1/BatchNorm/batchnorm_1/add_1/conv", "op": "Conv2D", "input": ["resnet_v1_50/block1/unit_3/bottleneck_v1/Relu", "resnet_v1_50/block2/unit_1/bottleneck_v1/conv1/weights"], "attr": {"padding": {"s": "U0FNRQ=="}, "dilations": {"list": {"i": ["1", "1", "1", "1"]}}, "T": {"type": "DT_FLOAT"}, "strides": {"list": {"i": ["1", "1", "1", "1"]}}, "data_format": {"s": "TkhXQw=="}, "explicit_paddings": {"list": {}}, "use_cudnn_on_gpu": {"b": true}}}, {"name": "resnet_v1_50/block2/unit_1/bottleneck_v1/shortcut/BatchNorm/batchnorm_1/add_1", "op": "BiasAdd", "input": ["resnet_v1_50/block2/unit_1/bottleneck_v1/shortcut/BatchNorm/batchnorm_1/add_1/conv", "resnet_v1_50/block2/unit_1/bottleneck_v1/shortcut/Conv2D_bias"], "attr": {"T": {"type": "DT_FLOAT"}, "data_format": {"s": "TkhXQw=="}}}, {"name": "resnet_v1_50/block2/unit_1/bottleneck_v1/conv1/BatchNorm/batchnorm_1/add_1", "op": "BiasAdd", "input": ["resnet_v1_50/block2/unit_1/bottleneck_v1/conv1/BatchNorm/batchnorm_1/add_1/conv", "resnet_v1_50/block2/unit_1/bottleneck_v1/conv1/Conv2D_bias"], "attr": {"data_format": {"s": "TkhXQw=="}, "T": {"type": "DT_FLOAT"}}}, {"name": "resnet_v1_50/block2/unit_1/bottleneck_v1/conv1/Relu", "op": "Relu", "input": ["resnet_v1_50/block2/unit_1/bottleneck_v1/conv1/BatchNorm/batchnorm_1/add_1"], "attr": {"T": {"type": "DT_FLOAT"}}}, {"name": "resnet_v1_50/block2/unit_1/bottleneck_v1/conv2/BatchNorm/batchnorm_1/add_1/conv", "op": "Conv2D", "input": ["resnet_v1_50/block2/unit_1/bottleneck_v1/conv1/Relu", "resnet_v1_50/block2/unit_1/bottleneck_v1/conv2/weights"], "attr": {"dilations": {"list": {"i": ["1", "1", "1", "1"]}}, "T": {"type": "DT_FLOAT"}, "data_format": {"s": "TkhXQw=="}, "strides": {"list": {"i": ["1", "1", "1", "1"]}}, "explicit_paddings": {"list": {}}, "use_cudnn_on_gpu": {"b": true}, "padding": {"s": "U0FNRQ=="}}}, {"name": "resnet_v1_50/block2/unit_1/bottleneck_v1/conv2/BatchNorm/batchnorm_1/add_1", "op": "BiasAdd", "input": ["resnet_v1_50/block2/unit_1/bottleneck_v1/conv2/BatchNorm/batchnorm_1/add_1/conv", "resnet_v1_50/block2/unit_1/bottleneck_v1/conv2/Conv2D_bias"], "attr": {"T": {"type": "DT_FLOAT"}, "data_format": {"s": "TkhXQw=="}}}, {"name": "resnet_v1_50/block2/unit_1/bottleneck_v1/conv2/Relu", "op": "Relu", "input": ["resnet_v1_50/block2/unit_1/bottleneck_v1/conv2/BatchNorm/batchnorm_1/add_1"], "attr": {"T": {"type": "DT_FLOAT"}}}, {"name": "resnet_v1_50/block2/unit_1/bottleneck_v1/conv3/BatchNorm/batchnorm_1/add_1/conv", "op": "Conv2D", "input": ["resnet_v1_50/block2/unit_1/bottleneck_v1/conv2/Relu", "resnet_v1_50/block2/unit_1/bottleneck_v1/conv3/weights"], "attr": {"dilations": {"list": {"i": ["1", "1", "1", "1"]}}, "T": {"type": "DT_FLOAT"}, "strides": {"list": {"i": ["1", "1", "1", "1"]}}, "data_format": {"s": "TkhXQw=="}, "use_cudnn_on_gpu": {"b": true}, "explicit_paddings": {"list": {}}, "padding": {"s": "U0FNRQ=="}}}, {"name": "resnet_v1_50/block2/unit_1/bottleneck_v1/conv3/BatchNorm/batchnorm_1/add_1", "op": "BiasAdd", "input": ["resnet_v1_50/block2/unit_1/bottleneck_v1/conv3/BatchNorm/batchnorm_1/add_1/conv", "resnet_v1_50/block2/unit_1/bottleneck_v1/conv3/Conv2D_bias"], "attr": {"T": {"type": "DT_FLOAT"}, "data_format": {"s": "TkhXQw=="}}}, {"name": "resnet_v1_50/block2/unit_1/bottleneck_v1/add", "op": "Add", "input": ["resnet_v1_50/block2/unit_1/bottleneck_v1/conv3/BatchNorm/batchnorm_1/add_1", "resnet_v1_50/block2/unit_1/bottleneck_v1/shortcut/BatchNorm/batchnorm_1/add_1"], "attr": {"T": {"type": "DT_FLOAT"}}}, {"name": "resnet_v1_50/block2/unit_1/bottleneck_v1/Relu", "op": "Relu", "input": ["resnet_v1_50/block2/unit_1/bottleneck_v1/add"], "attr": {"T": {"type": "DT_FLOAT"}}}, {"name": "resnet_v1_50/block2/unit_2/bottleneck_v1/conv1/BatchNorm/batchnorm_1/add_1/conv", "op": "Conv2D", "input": ["resnet_v1_50/block2/unit_1/bottleneck_v1/Relu", "resnet_v1_50/block2/unit_2/bottleneck_v1/conv1/weights"], "attr": {"padding": {"s": "U0FNRQ=="}, "dilations": {"list": {"i": ["1", "1", "1", "1"]}}, "T": {"type": "DT_FLOAT"}, "data_format": {"s": "TkhXQw=="}, "strides": {"list": {"i": ["1", "1", "1", "1"]}}, "use_cudnn_on_gpu": {"b": true}, "explicit_paddings": {"list": {}}}}, {"name": "resnet_v1_50/block2/unit_2/bottleneck_v1/conv1/BatchNorm/batchnorm_1/add_1", "op": "BiasAdd", "input": ["resnet_v1_50/block2/unit_2/bottleneck_v1/conv1/BatchNorm/batchnorm_1/add_1/conv", "resnet_v1_50/block2/unit_2/bottleneck_v1/conv1/Conv2D_bias"], "attr": {"T": {"type": "DT_FLOAT"}, "data_format": {"s": "TkhXQw=="}}}, {"name": "resnet_v1_50/block2/unit_2/bottleneck_v1/conv1/Relu", "op": "Relu", "input": ["resnet_v1_50/block2/unit_2/bottleneck_v1/conv1/BatchNorm/batchnorm_1/add_1"], "attr": {"T": {"type": "DT_FLOAT"}}}, {"name": "resnet_v1_50/block2/unit_2/bottleneck_v1/conv2/BatchNorm/batchnorm_1/add_1/conv", "op": "Conv2D", "input": ["resnet_v1_50/block2/unit_2/bottleneck_v1/conv1/Relu", "resnet_v1_50/block2/unit_2/bottleneck_v1/conv2/weights"], "attr": {"dilations": {"list": {"i": ["1", "1", "1", "1"]}}, "T": {"type": "DT_FLOAT"}, "data_format": {"s": "TkhXQw=="}, "strides": {"list": {"i": ["1", "1", "1", "1"]}}, "use_cudnn_on_gpu": {"b": true}, "explicit_paddings": {"list": {}}, "padding": {"s": "U0FNRQ=="}}}, {"name": "resnet_v1_50/block2/unit_2/bottleneck_v1/conv2/BatchNorm/batchnorm_1/add_1", "op": "BiasAdd", "input": ["resnet_v1_50/block2/unit_2/bottleneck_v1/conv2/BatchNorm/batchnorm_1/add_1/conv", "resnet_v1_50/block2/unit_2/bottleneck_v1/conv2/Conv2D_bias"], "attr": {"T": {"type": "DT_FLOAT"}, "data_format": {"s": "TkhXQw=="}}}, {"name": "resnet_v1_50/block2/unit_2/bottleneck_v1/conv2/Relu", "op": "Relu", "input": ["resnet_v1_50/block2/unit_2/bottleneck_v1/conv2/BatchNorm/batchnorm_1/add_1"], "attr": {"T": {"type": "DT_FLOAT"}}}, {"name": "resnet_v1_50/block2/unit_2/bottleneck_v1/conv3/BatchNorm/batchnorm_1/add_1/conv", "op": "Conv2D", "input": ["resnet_v1_50/block2/unit_2/bottleneck_v1/conv2/Relu", "resnet_v1_50/block2/unit_2/bottleneck_v1/conv3/weights"], "attr": {"padding": {"s": "U0FNRQ=="}, "dilations": {"list": {"i": ["1", "1", "1", "1"]}}, "T": {"type": "DT_FLOAT"}, "strides": {"list": {"i": ["1", "1", "1", "1"]}}, "data_format": {"s": "TkhXQw=="}, "use_cudnn_on_gpu": {"b": true}, "explicit_paddings": {"list": {}}}}, {"name": "resnet_v1_50/block2/unit_2/bottleneck_v1/conv3/BatchNorm/batchnorm_1/add_1", "op": "BiasAdd", "input": ["resnet_v1_50/block2/unit_2/bottleneck_v1/conv3/BatchNorm/batchnorm_1/add_1/conv", "resnet_v1_50/block2/unit_2/bottleneck_v1/conv3/Conv2D_bias"], "attr": {"T": {"type": "DT_FLOAT"}, "data_format": {"s": "TkhXQw=="}}}, {"name": "resnet_v1_50/block2/unit_2/bottleneck_v1/add", "op": "Add", "input": ["resnet_v1_50/block2/unit_1/bottleneck_v1/Relu", "resnet_v1_50/block2/unit_2/bottleneck_v1/conv3/BatchNorm/batchnorm_1/add_1"], "attr": {"T": {"type": "DT_FLOAT"}}}, {"name": "resnet_v1_50/block2/unit_2/bottleneck_v1/Relu", "op": "Relu", "input": ["resnet_v1_50/block2/unit_2/bottleneck_v1/add"], "attr": {"T": {"type": "DT_FLOAT"}}}, {"name": "resnet_v1_50/block2/unit_3/bottleneck_v1/conv1/BatchNorm/batchnorm_1/add_1/conv", "op": "Conv2D", "input": ["resnet_v1_50/block2/unit_2/bottleneck_v1/Relu", "resnet_v1_50/block2/unit_3/bottleneck_v1/conv1/weights"], "attr": {"dilations": {"list": {"i": ["1", "1", "1", "1"]}}, "T": {"type": "DT_FLOAT"}, "strides": {"list": {"i": ["1", "1", "1", "1"]}}, "data_format": {"s": "TkhXQw=="}, "use_cudnn_on_gpu": {"b": true}, "explicit_paddings": {"list": {}}, "padding": {"s": "U0FNRQ=="}}}, {"name": "resnet_v1_50/block2/unit_3/bottleneck_v1/conv1/BatchNorm/batchnorm_1/add_1", "op": "BiasAdd", "input": ["resnet_v1_50/block2/unit_3/bottleneck_v1/conv1/BatchNorm/batchnorm_1/add_1/conv", "resnet_v1_50/block2/unit_3/bottleneck_v1/conv1/Conv2D_bias"], "attr": {"T": {"type": "DT_FLOAT"}, "data_format": {"s": "TkhXQw=="}}}, {"name": "resnet_v1_50/block2/unit_3/bottleneck_v1/conv1/Relu", "op": "Relu", "input": ["resnet_v1_50/block2/unit_3/bottleneck_v1/conv1/BatchNorm/batchnorm_1/add_1"], "attr": {"T": {"type": "DT_FLOAT"}}}, {"name": "resnet_v1_50/block2/unit_3/bottleneck_v1/conv2/BatchNorm/batchnorm_1/add_1/conv", "op": "Conv2D", "input": ["resnet_v1_50/block2/unit_3/bottleneck_v1/conv1/Relu", "resnet_v1_50/block2/unit_3/bottleneck_v1/conv2/weights"], "attr": {"data_format": {"s": "TkhXQw=="}, "strides": {"list": {"i": ["1", "1", "1", "1"]}}, "explicit_paddings": {"list": {}}, "use_cudnn_on_gpu": {"b": true}, "padding": {"s": "U0FNRQ=="}, "dilations": {"list": {"i": ["1", "1", "1", "1"]}}, "T": {"type": "DT_FLOAT"}}}, {"name": "resnet_v1_50/block2/unit_3/bottleneck_v1/conv2/BatchNorm/batchnorm_1/add_1", "op": "BiasAdd", "input": ["resnet_v1_50/block2/unit_3/bottleneck_v1/conv2/BatchNorm/batchnorm_1/add_1/conv", "resnet_v1_50/block2/unit_3/bottleneck_v1/conv2/Conv2D_bias"], "attr": {"T": {"type": "DT_FLOAT"}, "data_format": {"s": "TkhXQw=="}}}, {"name": "resnet_v1_50/block2/unit_3/bottleneck_v1/conv2/Relu", "op": "Relu", "input": ["resnet_v1_50/block2/unit_3/bottleneck_v1/conv2/BatchNorm/batchnorm_1/add_1"], "attr": {"T": {"type": "DT_FLOAT"}}}, {"name": "resnet_v1_50/block2/unit_3/bottleneck_v1/conv3/BatchNorm/batchnorm_1/add_1/conv", "op": "Conv2D", "input": ["resnet_v1_50/block2/unit_3/bottleneck_v1/conv2/Relu", "resnet_v1_50/block2/unit_3/bottleneck_v1/conv3/weights"], "attr": {"dilations": {"list": {"i": ["1", "1", "1", "1"]}}, "T": {"type": "DT_FLOAT"}, "data_format": {"s": "TkhXQw=="}, "strides": {"list": {"i": ["1", "1", "1", "1"]}}, "use_cudnn_on_gpu": {"b": true}, "explicit_paddings": {"list": {}}, "padding": {"s": "U0FNRQ=="}}}, {"name": "resnet_v1_50/block2/unit_3/bottleneck_v1/conv3/BatchNorm/batchnorm_1/add_1", "op": "BiasAdd", "input": ["resnet_v1_50/block2/unit_3/bottleneck_v1/conv3/BatchNorm/batchnorm_1/add_1/conv", "resnet_v1_50/block2/unit_3/bottleneck_v1/conv3/Conv2D_bias"], "attr": {"T": {"type": "DT_FLOAT"}, "data_format": {"s": "TkhXQw=="}}}, {"name": "resnet_v1_50/block2/unit_3/bottleneck_v1/add", "op": "Add", "input": ["resnet_v1_50/block2/unit_2/bottleneck_v1/Relu", "resnet_v1_50/block2/unit_3/bottleneck_v1/conv3/BatchNorm/batchnorm_1/add_1"], "attr": {"T": {"type": "DT_FLOAT"}}}, {"name": "resnet_v1_50/block2/unit_3/bottleneck_v1/Relu", "op": "Relu", "input": ["resnet_v1_50/block2/unit_3/bottleneck_v1/add"], "attr": {"T": {"type": "DT_FLOAT"}}}, {"name": "resnet_v1_50/block2/unit_4/bottleneck_v1/shortcut/MaxPool", "op": "MaxPool", "input": ["resnet_v1_50/block2/unit_3/bottleneck_v1/Relu"], "attr": {"data_format": {"s": "TkhXQw=="}, "strides": {"list": {"i": ["1", "2", "2", "1"]}}, "ksize": {"list": {"i": ["1", "1", "1", "1"]}}, "padding": {"s": "U0FNRQ=="}, "T": {"type": "DT_FLOAT"}}}, {"name": "resnet_v1_50/block2/unit_4/bottleneck_v1/conv1/BatchNorm/batchnorm_1/add_1/conv", "op": "Conv2D", "input": ["resnet_v1_50/block2/unit_3/bottleneck_v1/Relu", "resnet_v1_50/block2/unit_4/bottleneck_v1/conv1/weights"], "attr": {"dilations": {"list": {"i": ["1", "1", "1", "1"]}}, "T": {"type": "DT_FLOAT"}, "strides": {"list": {"i": ["1", "1", "1", "1"]}}, "data_format": {"s": "TkhXQw=="}, "use_cudnn_on_gpu": {"b": true}, "explicit_paddings": {"list": {}}, "padding": {"s": "U0FNRQ=="}}}, {"name": "resnet_v1_50/block2/unit_4/bottleneck_v1/conv1/BatchNorm/batchnorm_1/add_1", "op": "BiasAdd", "input": ["resnet_v1_50/block2/unit_4/bottleneck_v1/conv1/BatchNorm/batchnorm_1/add_1/conv", "resnet_v1_50/block2/unit_4/bottleneck_v1/conv1/Conv2D_bias"], "attr": {"T": {"type": "DT_FLOAT"}, "data_format": {"s": "TkhXQw=="}}}, {"name": "resnet_v1_50/block2/unit_4/bottleneck_v1/conv1/Relu", "op": "Relu", "input": ["resnet_v1_50/block2/unit_4/bottleneck_v1/conv1/BatchNorm/batchnorm_1/add_1"], "attr": {"T": {"type": "DT_FLOAT"}}}, {"name": "resnet_v1_50/block2/unit_4/bottleneck_v1/Pad", "op": "Pad", "input": ["resnet_v1_50/block2/unit_4/bottleneck_v1/conv1/Relu", "resnet_v1_50/Pad_1/paddings"], "attr": {"T": {"type": "DT_FLOAT"}, "Tpaddings": {"type": "DT_INT32"}}}, {"name": "resnet_v1_50/block2/unit_4/bottleneck_v1/conv2/BatchNorm/batchnorm_1/add_1/conv", "op": "Conv2D", "input": ["resnet_v1_50/block2/unit_4/bottleneck_v1/Pad", "resnet_v1_50/block2/unit_4/bottleneck_v1/conv2/weights"], "attr": {"strides": {"list": {"i": ["1", "2", "2", "1"]}}, "data_format": {"s": "TkhXQw=="}, "use_cudnn_on_gpu": {"b": true}, "explicit_paddings": {"list": {}}, "padding": {"s": "VkFMSUQ="}, "dilations": {"list": {"i": ["1", "1", "1", "1"]}}, "T": {"type": "DT_FLOAT"}}}, {"name": "resnet_v1_50/block2/unit_4/bottleneck_v1/conv2/BatchNorm/batchnorm_1/add_1", "op": "BiasAdd", "input": ["resnet_v1_50/block2/unit_4/bottleneck_v1/conv2/BatchNorm/batchnorm_1/add_1/conv", "resnet_v1_50/block2/unit_4/bottleneck_v1/conv2/Conv2D_bias"], "attr": {"data_format": {"s": "TkhXQw=="}, "T": {"type": "DT_FLOAT"}}}, {"name": "resnet_v1_50/block2/unit_4/bottleneck_v1/conv2/Relu", "op": "Relu", "input": ["resnet_v1_50/block2/unit_4/bottleneck_v1/conv2/BatchNorm/batchnorm_1/add_1"], "attr": {"T": {"type": "DT_FLOAT"}}}, {"name": "resnet_v1_50/block2/unit_4/bottleneck_v1/conv3/BatchNorm/batchnorm_1/add_1/conv", "op": "Conv2D", "input": ["resnet_v1_50/block2/unit_4/bottleneck_v1/conv2/Relu", "resnet_v1_50/block2/unit_4/bottleneck_v1/conv3/weights"], "attr": {"dilations": {"list": {"i": ["1", "1", "1", "1"]}}, "T": {"type": "DT_FLOAT"}, "strides": {"list": {"i": ["1", "1", "1", "1"]}}, "data_format": {"s": "TkhXQw=="}, "explicit_paddings": {"list": {}}, "use_cudnn_on_gpu": {"b": true}, "padding": {"s": "U0FNRQ=="}}}, {"name": "resnet_v1_50/block2/unit_4/bottleneck_v1/conv3/BatchNorm/batchnorm_1/add_1", "op": "BiasAdd", "input": ["resnet_v1_50/block2/unit_4/bottleneck_v1/conv3/BatchNorm/batchnorm_1/add_1/conv", "resnet_v1_50/block2/unit_4/bottleneck_v1/conv3/Conv2D_bias"], "attr": {"T": {"type": "DT_FLOAT"}, "data_format": {"s": "TkhXQw=="}}}, {"name": "resnet_v1_50/block2/unit_4/bottleneck_v1/add", "op": "Add", "input": ["resnet_v1_50/block2/unit_4/bottleneck_v1/conv3/BatchNorm/batchnorm_1/add_1", "resnet_v1_50/block2/unit_4/bottleneck_v1/shortcut/MaxPool"], "attr": {"T": {"type": "DT_FLOAT"}}}, {"name": "resnet_v1_50/block2/unit_4/bottleneck_v1/Relu", "op": "Relu", "input": ["resnet_v1_50/block2/unit_4/bottleneck_v1/add"], "attr": {"T": {"type": "DT_FLOAT"}}}, {"name": "resnet_v1_50/block3/unit_1/bottleneck_v1/shortcut/BatchNorm/batchnorm_1/add_1/conv", "op": "Conv2D", "input": ["resnet_v1_50/block2/unit_4/bottleneck_v1/Relu", "resnet_v1_50/block3/unit_1/bottleneck_v1/shortcut/weights"], "attr": {"padding": {"s": "U0FNRQ=="}, "dilations": {"list": {"i": ["1", "1", "1", "1"]}}, "T": {"type": "DT_FLOAT"}, "data_format": {"s": "TkhXQw=="}, "strides": {"list": {"i": ["1", "1", "1", "1"]}}, "use_cudnn_on_gpu": {"b": true}, "explicit_paddings": {"list": {}}}}, {"name": "resnet_v1_50/block3/unit_1/bottleneck_v1/conv1/BatchNorm/batchnorm_1/add_1/conv", "op": "Conv2D", "input": ["resnet_v1_50/block2/unit_4/bottleneck_v1/Relu", "resnet_v1_50/block3/unit_1/bottleneck_v1/conv1/weights"], "attr": {"data_format": {"s": "TkhXQw=="}, "strides": {"list": {"i": ["1", "1", "1", "1"]}}, "use_cudnn_on_gpu": {"b": true}, "explicit_paddings": {"list": {}}, "padding": {"s": "U0FNRQ=="}, "dilations": {"list": {"i": ["1", "1", "1", "1"]}}, "T": {"type": "DT_FLOAT"}}}, {"name": "resnet_v1_50/block3/unit_1/bottleneck_v1/shortcut/BatchNorm/batchnorm_1/add_1", "op": "BiasAdd", "input": ["resnet_v1_50/block3/unit_1/bottleneck_v1/shortcut/BatchNorm/batchnorm_1/add_1/conv", "resnet_v1_50/block3/unit_1/bottleneck_v1/shortcut/Conv2D_bias"], "attr": {"T": {"type": "DT_FLOAT"}, "data_format": {"s": "TkhXQw=="}}}, {"name": "resnet_v1_50/block3/unit_1/bottleneck_v1/conv1/BatchNorm/batchnorm_1/add_1", "op": "BiasAdd", "input": ["resnet_v1_50/block3/unit_1/bottleneck_v1/conv1/BatchNorm/batchnorm_1/add_1/conv", "resnet_v1_50/block3/unit_1/bottleneck_v1/conv1/Conv2D_bias"], "attr": {"T": {"type": "DT_FLOAT"}, "data_format": {"s": "TkhXQw=="}}}, {"name": "resnet_v1_50/block3/unit_1/bottleneck_v1/conv1/Relu", "op": "Relu", "input": ["resnet_v1_50/block3/unit_1/bottleneck_v1/conv1/BatchNorm/batchnorm_1/add_1"], "attr": {"T": {"type": "DT_FLOAT"}}}, {"name": "resnet_v1_50/block3/unit_1/bottleneck_v1/conv2/BatchNorm/batchnorm_1/add_1/conv", "op": "Conv2D", "input": ["resnet_v1_50/block3/unit_1/bottleneck_v1/conv1/Relu", "resnet_v1_50/block3/unit_1/bottleneck_v1/conv2/weights"], "attr": {"dilations": {"list": {"i": ["1", "1", "1", "1"]}}, "T": {"type": "DT_FLOAT"}, "strides": {"list": {"i": ["1", "1", "1", "1"]}}, "data_format": {"s": "TkhXQw=="}, "explicit_paddings": {"list": {}}, "use_cudnn_on_gpu": {"b": true}, "padding": {"s": "U0FNRQ=="}}}, {"name": "resnet_v1_50/block3/unit_1/bottleneck_v1/conv2/BatchNorm/batchnorm_1/add_1", "op": "BiasAdd", "input": ["resnet_v1_50/block3/unit_1/bottleneck_v1/conv2/BatchNorm/batchnorm_1/add_1/conv", "resnet_v1_50/block3/unit_1/bottleneck_v1/conv2/Conv2D_bias"], "attr": {"T": {"type": "DT_FLOAT"}, "data_format": {"s": "TkhXQw=="}}}, {"name": "resnet_v1_50/block3/unit_1/bottleneck_v1/conv2/Relu", "op": "Relu", "input": ["resnet_v1_50/block3/unit_1/bottleneck_v1/conv2/BatchNorm/batchnorm_1/add_1"], "attr": {"T": {"type": "DT_FLOAT"}}}, {"name": "resnet_v1_50/block3/unit_1/bottleneck_v1/conv3/BatchNorm/batchnorm_1/add_1/conv", "op": "Conv2D", "input": ["resnet_v1_50/block3/unit_1/bottleneck_v1/conv2/Relu", "resnet_v1_50/block3/unit_1/bottleneck_v1/conv3/weights"], "attr": {"data_format": {"s": "TkhXQw=="}, "strides": {"list": {"i": ["1", "1", "1", "1"]}}, "use_cudnn_on_gpu": {"b": true}, "explicit_paddings": {"list": {}}, "padding": {"s": "U0FNRQ=="}, "dilations": {"list": {"i": ["1", "1", "1", "1"]}}, "T": {"type": "DT_FLOAT"}}}, {"name": "resnet_v1_50/block3/unit_1/bottleneck_v1/conv3/BatchNorm/batchnorm_1/add_1", "op": "BiasAdd", "input": ["resnet_v1_50/block3/unit_1/bottleneck_v1/conv3/BatchNorm/batchnorm_1/add_1/conv", "resnet_v1_50/block3/unit_1/bottleneck_v1/conv3/Conv2D_bias"], "attr": {"T": {"type": "DT_FLOAT"}, "data_format": {"s": "TkhXQw=="}}}, {"name": "resnet_v1_50/block3/unit_1/bottleneck_v1/add", "op": "Add", "input": ["resnet_v1_50/block3/unit_1/bottleneck_v1/conv3/BatchNorm/batchnorm_1/add_1", "resnet_v1_50/block3/unit_1/bottleneck_v1/shortcut/BatchNorm/batchnorm_1/add_1"], "attr": {"T": {"type": "DT_FLOAT"}}}, {"name": "resnet_v1_50/block3/unit_1/bottleneck_v1/Relu", "op": "Relu", "input": ["resnet_v1_50/block3/unit_1/bottleneck_v1/add"], "attr": {"T": {"type": "DT_FLOAT"}}}, {"name": "resnet_v1_50/block3/unit_2/bottleneck_v1/conv1/BatchNorm/batchnorm_1/add_1/conv", "op": "Conv2D", "input": ["resnet_v1_50/block3/unit_1/bottleneck_v1/Relu", "resnet_v1_50/block3/unit_2/bottleneck_v1/conv1/weights"], "attr": {"dilations": {"list": {"i": ["1", "1", "1", "1"]}}, "T": {"type": "DT_FLOAT"}, "strides": {"list": {"i": ["1", "1", "1", "1"]}}, "data_format": {"s": "TkhXQw=="}, "explicit_paddings": {"list": {}}, "use_cudnn_on_gpu": {"b": true}, "padding": {"s": "U0FNRQ=="}}}, {"name": "resnet_v1_50/block3/unit_2/bottleneck_v1/conv1/BatchNorm/batchnorm_1/add_1", "op": "BiasAdd", "input": ["resnet_v1_50/block3/unit_2/bottleneck_v1/conv1/BatchNorm/batchnorm_1/add_1/conv", "resnet_v1_50/block3/unit_2/bottleneck_v1/conv1/Conv2D_bias"], "attr": {"data_format": {"s": "TkhXQw=="}, "T": {"type": "DT_FLOAT"}}}, {"name": "resnet_v1_50/block3/unit_2/bottleneck_v1/conv1/Relu", "op": "Relu", "input": ["resnet_v1_50/block3/unit_2/bottleneck_v1/conv1/BatchNorm/batchnorm_1/add_1"], "attr": {"T": {"type": "DT_FLOAT"}}}, {"name": "resnet_v1_50/block3/unit_2/bottleneck_v1/conv2/BatchNorm/batchnorm_1/add_1/conv", "op": "Conv2D", "input": ["resnet_v1_50/block3/unit_2/bottleneck_v1/conv1/Relu", "resnet_v1_50/block3/unit_2/bottleneck_v1/conv2/weights"], "attr": {"padding": {"s": "U0FNRQ=="}, "dilations": {"list": {"i": ["1", "1", "1", "1"]}}, "T": {"type": "DT_FLOAT"}, "data_format": {"s": "TkhXQw=="}, "strides": {"list": {"i": ["1", "1", "1", "1"]}}, "explicit_paddings": {"list": {}}, "use_cudnn_on_gpu": {"b": true}}}, {"name": "resnet_v1_50/block3/unit_2/bottleneck_v1/conv2/BatchNorm/batchnorm_1/add_1", "op": "BiasAdd", "input": ["resnet_v1_50/block3/unit_2/bottleneck_v1/conv2/BatchNorm/batchnorm_1/add_1/conv", "resnet_v1_50/block3/unit_2/bottleneck_v1/conv2/Conv2D_bias"], "attr": {"T": {"type": "DT_FLOAT"}, "data_format": {"s": "TkhXQw=="}}}, {"name": "resnet_v1_50/block3/unit_2/bottleneck_v1/conv2/Relu", "op": "Relu", "input": ["resnet_v1_50/block3/unit_2/bottleneck_v1/conv2/BatchNorm/batchnorm_1/add_1"], "attr": {"T": {"type": "DT_FLOAT"}}}, {"name": "resnet_v1_50/block3/unit_2/bottleneck_v1/conv3/BatchNorm/batchnorm_1/add_1/conv", "op": "Conv2D", "input": ["resnet_v1_50/block3/unit_2/bottleneck_v1/conv2/Relu", "resnet_v1_50/block3/unit_2/bottleneck_v1/conv3/weights"], "attr": {"dilations": {"list": {"i": ["1", "1", "1", "1"]}}, "T": {"type": "DT_FLOAT"}, "strides": {"list": {"i": ["1", "1", "1", "1"]}}, "data_format": {"s": "TkhXQw=="}, "explicit_paddings": {"list": {}}, "use_cudnn_on_gpu": {"b": true}, "padding": {"s": "U0FNRQ=="}}}, {"name": "resnet_v1_50/block3/unit_2/bottleneck_v1/conv3/BatchNorm/batchnorm_1/add_1", "op": "BiasAdd", "input": ["resnet_v1_50/block3/unit_2/bottleneck_v1/conv3/BatchNorm/batchnorm_1/add_1/conv", "resnet_v1_50/block3/unit_2/bottleneck_v1/conv3/Conv2D_bias"], "attr": {"T": {"type": "DT_FLOAT"}, "data_format": {"s": "TkhXQw=="}}}, {"name": "resnet_v1_50/block3/unit_2/bottleneck_v1/add", "op": "Add", "input": ["resnet_v1_50/block3/unit_1/bottleneck_v1/Relu", "resnet_v1_50/block3/unit_2/bottleneck_v1/conv3/BatchNorm/batchnorm_1/add_1"], "attr": {"T": {"type": "DT_FLOAT"}}}, {"name": "resnet_v1_50/block3/unit_2/bottleneck_v1/Relu", "op": "Relu", "input": ["resnet_v1_50/block3/unit_2/bottleneck_v1/add"], "attr": {"T": {"type": "DT_FLOAT"}}}, {"name": "resnet_v1_50/block3/unit_3/bottleneck_v1/conv1/BatchNorm/batchnorm_1/add_1/conv", "op": "Conv2D", "input": ["resnet_v1_50/block3/unit_2/bottleneck_v1/Relu", "resnet_v1_50/block3/unit_3/bottleneck_v1/conv1/weights"], "attr": {"padding": {"s": "U0FNRQ=="}, "dilations": {"list": {"i": ["1", "1", "1", "1"]}}, "T": {"type": "DT_FLOAT"}, "data_format": {"s": "TkhXQw=="}, "strides": {"list": {"i": ["1", "1", "1", "1"]}}, "explicit_paddings": {"list": {}}, "use_cudnn_on_gpu": {"b": true}}}, {"name": "resnet_v1_50/block3/unit_3/bottleneck_v1/conv1/BatchNorm/batchnorm_1/add_1", "op": "BiasAdd", "input": ["resnet_v1_50/block3/unit_3/bottleneck_v1/conv1/BatchNorm/batchnorm_1/add_1/conv", "resnet_v1_50/block3/unit_3/bottleneck_v1/conv1/Conv2D_bias"], "attr": {"T": {"type": "DT_FLOAT"}, "data_format": {"s": "TkhXQw=="}}}, {"name": "resnet_v1_50/block3/unit_3/bottleneck_v1/conv1/Relu", "op": "Relu", "input": ["resnet_v1_50/block3/unit_3/bottleneck_v1/conv1/BatchNorm/batchnorm_1/add_1"], "attr": {"T": {"type": "DT_FLOAT"}}}, {"name": "resnet_v1_50/block3/unit_3/bottleneck_v1/conv2/BatchNorm/batchnorm_1/add_1/conv", "op": "Conv2D", "input": ["resnet_v1_50/block3/unit_3/bottleneck_v1/conv1/Relu", "resnet_v1_50/block3/unit_3/bottleneck_v1/conv2/weights"], "attr": {"explicit_paddings": {"list": {}}, "use_cudnn_on_gpu": {"b": true}, "padding": {"s": "U0FNRQ=="}, "dilations": {"list": {"i": ["1", "1", "1", "1"]}}, "T": {"type": "DT_FLOAT"}, "data_format": {"s": "TkhXQw=="}, "strides": {"list": {"i": ["1", "1", "1", "1"]}}}}, {"name": "resnet_v1_50/block3/unit_3/bottleneck_v1/conv2/BatchNorm/batchnorm_1/add_1", "op": "BiasAdd", "input": ["resnet_v1_50/block3/unit_3/bottleneck_v1/conv2/BatchNorm/batchnorm_1/add_1/conv", "resnet_v1_50/block3/unit_3/bottleneck_v1/conv2/Conv2D_bias"], "attr": {"T": {"type": "DT_FLOAT"}, "data_format": {"s": "TkhXQw=="}}}, {"name": "resnet_v1_50/block3/unit_3/bottleneck_v1/conv2/Relu", "op": "Relu", "input": ["resnet_v1_50/block3/unit_3/bottleneck_v1/conv2/BatchNorm/batchnorm_1/add_1"], "attr": {"T": {"type": "DT_FLOAT"}}}, {"name": "resnet_v1_50/block3/unit_3/bottleneck_v1/conv3/BatchNorm/batchnorm_1/add_1/conv", "op": "Conv2D", "input": ["resnet_v1_50/block3/unit_3/bottleneck_v1/conv2/Relu", "resnet_v1_50/block3/unit_3/bottleneck_v1/conv3/weights"], "attr": {"dilations": {"list": {"i": ["1", "1", "1", "1"]}}, "T": {"type": "DT_FLOAT"}, "strides": {"list": {"i": ["1", "1", "1", "1"]}}, "data_format": {"s": "TkhXQw=="}, "explicit_paddings": {"list": {}}, "use_cudnn_on_gpu": {"b": true}, "padding": {"s": "U0FNRQ=="}}}, {"name": "resnet_v1_50/block3/unit_3/bottleneck_v1/conv3/BatchNorm/batchnorm_1/add_1", "op": "BiasAdd", "input": ["resnet_v1_50/block3/unit_3/bottleneck_v1/conv3/BatchNorm/batchnorm_1/add_1/conv", "resnet_v1_50/block3/unit_3/bottleneck_v1/conv3/Conv2D_bias"], "attr": {"T": {"type": "DT_FLOAT"}, "data_format": {"s": "TkhXQw=="}}}, {"name": "resnet_v1_50/block3/unit_3/bottleneck_v1/add", "op": "Add", "input": ["resnet_v1_50/block3/unit_2/bottleneck_v1/Relu", "resnet_v1_50/block3/unit_3/bottleneck_v1/conv3/BatchNorm/batchnorm_1/add_1"], "attr": {"T": {"type": "DT_FLOAT"}}}, {"name": "resnet_v1_50/block3/unit_3/bottleneck_v1/Relu", "op": "Relu", "input": ["resnet_v1_50/block3/unit_3/bottleneck_v1/add"], "attr": {"T": {"type": "DT_FLOAT"}}}, {"name": "resnet_v1_50/block3/unit_4/bottleneck_v1/conv1/BatchNorm/batchnorm_1/add_1/conv", "op": "Conv2D", "input": ["resnet_v1_50/block3/unit_3/bottleneck_v1/Relu", "resnet_v1_50/block3/unit_4/bottleneck_v1/conv1/weights"], "attr": {"dilations": {"list": {"i": ["1", "1", "1", "1"]}}, "T": {"type": "DT_FLOAT"}, "strides": {"list": {"i": ["1", "1", "1", "1"]}}, "data_format": {"s": "TkhXQw=="}, "use_cudnn_on_gpu": {"b": true}, "explicit_paddings": {"list": {}}, "padding": {"s": "U0FNRQ=="}}}, {"name": "resnet_v1_50/block3/unit_4/bottleneck_v1/conv1/BatchNorm/batchnorm_1/add_1", "op": "BiasAdd", "input": ["resnet_v1_50/block3/unit_4/bottleneck_v1/conv1/BatchNorm/batchnorm_1/add_1/conv", "resnet_v1_50/block3/unit_4/bottleneck_v1/conv1/Conv2D_bias"], "attr": {"T": {"type": "DT_FLOAT"}, "data_format": {"s": "TkhXQw=="}}}, {"name": "resnet_v1_50/block3/unit_4/bottleneck_v1/conv1/Relu", "op": "Relu", "input": ["resnet_v1_50/block3/unit_4/bottleneck_v1/conv1/BatchNorm/batchnorm_1/add_1"], "attr": {"T": {"type": "DT_FLOAT"}}}, {"name": "resnet_v1_50/block3/unit_4/bottleneck_v1/conv2/BatchNorm/batchnorm_1/add_1/conv", "op": "Conv2D", "input": ["resnet_v1_50/block3/unit_4/bottleneck_v1/conv1/Relu", "resnet_v1_50/block3/unit_4/bottleneck_v1/conv2/weights"], "attr": {"padding": {"s": "U0FNRQ=="}, "dilations": {"list": {"i": ["1", "1", "1", "1"]}}, "T": {"type": "DT_FLOAT"}, "data_format": {"s": "TkhXQw=="}, "strides": {"list": {"i": ["1", "1", "1", "1"]}}, "use_cudnn_on_gpu": {"b": true}, "explicit_paddings": {"list": {}}}}, {"name": "resnet_v1_50/block3/unit_4/bottleneck_v1/conv2/BatchNorm/batchnorm_1/add_1", "op": "BiasAdd", "input": ["resnet_v1_50/block3/unit_4/bottleneck_v1/conv2/BatchNorm/batchnorm_1/add_1/conv", "resnet_v1_50/block3/unit_4/bottleneck_v1/conv2/Conv2D_bias"], "attr": {"T": {"type": "DT_FLOAT"}, "data_format": {"s": "TkhXQw=="}}}, {"name": "resnet_v1_50/block3/unit_4/bottleneck_v1/conv2/Relu", "op": "Relu", "input": ["resnet_v1_50/block3/unit_4/bottleneck_v1/conv2/BatchNorm/batchnorm_1/add_1"], "attr": {"T": {"type": "DT_FLOAT"}}}, {"name": "resnet_v1_50/block3/unit_4/bottleneck_v1/conv3/BatchNorm/batchnorm_1/add_1/conv", "op": "Conv2D", "input": ["resnet_v1_50/block3/unit_4/bottleneck_v1/conv2/Relu", "resnet_v1_50/block3/unit_4/bottleneck_v1/conv3/weights"], "attr": {"dilations": {"list": {"i": ["1", "1", "1", "1"]}}, "T": {"type": "DT_FLOAT"}, "strides": {"list": {"i": ["1", "1", "1", "1"]}}, "data_format": {"s": "TkhXQw=="}, "explicit_paddings": {"list": {}}, "use_cudnn_on_gpu": {"b": true}, "padding": {"s": "U0FNRQ=="}}}, {"name": "resnet_v1_50/block3/unit_4/bottleneck_v1/conv3/BatchNorm/batchnorm_1/add_1", "op": "BiasAdd", "input": ["resnet_v1_50/block3/unit_4/bottleneck_v1/conv3/BatchNorm/batchnorm_1/add_1/conv", "resnet_v1_50/block3/unit_4/bottleneck_v1/conv3/Conv2D_bias"], "attr": {"T": {"type": "DT_FLOAT"}, "data_format": {"s": "TkhXQw=="}}}, {"name": "resnet_v1_50/block3/unit_4/bottleneck_v1/add", "op": "Add", "input": ["resnet_v1_50/block3/unit_3/bottleneck_v1/Relu", "resnet_v1_50/block3/unit_4/bottleneck_v1/conv3/BatchNorm/batchnorm_1/add_1"], "attr": {"T": {"type": "DT_FLOAT"}}}, {"name": "resnet_v1_50/block3/unit_4/bottleneck_v1/Relu", "op": "Relu", "input": ["resnet_v1_50/block3/unit_4/bottleneck_v1/add"], "attr": {"T": {"type": "DT_FLOAT"}}}, {"name": "resnet_v1_50/block3/unit_5/bottleneck_v1/conv1/BatchNorm/batchnorm_1/add_1/conv", "op": "Conv2D", "input": ["resnet_v1_50/block3/unit_4/bottleneck_v1/Relu", "resnet_v1_50/block3/unit_5/bottleneck_v1/conv1/weights"], "attr": {"dilations": {"list": {"i": ["1", "1", "1", "1"]}}, "T": {"type": "DT_FLOAT"}, "strides": {"list": {"i": ["1", "1", "1", "1"]}}, "data_format": {"s": "TkhXQw=="}, "explicit_paddings": {"list": {}}, "use_cudnn_on_gpu": {"b": true}, "padding": {"s": "U0FNRQ=="}}}, {"name": "resnet_v1_50/block3/unit_5/bottleneck_v1/conv1/BatchNorm/batchnorm_1/add_1", "op": "BiasAdd", "input": ["resnet_v1_50/block3/unit_5/bottleneck_v1/conv1/BatchNorm/batchnorm_1/add_1/conv", "resnet_v1_50/block3/unit_5/bottleneck_v1/conv1/Conv2D_bias"], "attr": {"T": {"type": "DT_FLOAT"}, "data_format": {"s": "TkhXQw=="}}}, {"name": "resnet_v1_50/block3/unit_5/bottleneck_v1/conv1/Relu", "op": "Relu", "input": ["resnet_v1_50/block3/unit_5/bottleneck_v1/conv1/BatchNorm/batchnorm_1/add_1"], "attr": {"T": {"type": "DT_FLOAT"}}}, {"name": "resnet_v1_50/block3/unit_5/bottleneck_v1/conv2/BatchNorm/batchnorm_1/add_1/conv", "op": "Conv2D", "input": ["resnet_v1_50/block3/unit_5/bottleneck_v1/conv1/Relu", "resnet_v1_50/block3/unit_5/bottleneck_v1/conv2/weights"], "attr": {"dilations": {"list": {"i": ["1", "1", "1", "1"]}}, "T": {"type": "DT_FLOAT"}, "strides": {"list": {"i": ["1", "1", "1", "1"]}}, "data_format": {"s": "TkhXQw=="}, "use_cudnn_on_gpu": {"b": true}, "explicit_paddings": {"list": {}}, "padding": {"s": "U0FNRQ=="}}}, {"name": "resnet_v1_50/block3/unit_5/bottleneck_v1/conv2/BatchNorm/batchnorm_1/add_1", "op": "BiasAdd", "input": ["resnet_v1_50/block3/unit_5/bottleneck_v1/conv2/BatchNorm/batchnorm_1/add_1/conv", "resnet_v1_50/block3/unit_5/bottleneck_v1/conv2/Conv2D_bias"], "attr": {"T": {"type": "DT_FLOAT"}, "data_format": {"s": "TkhXQw=="}}}, {"name": "resnet_v1_50/block3/unit_5/bottleneck_v1/conv2/Relu", "op": "Relu", "input": ["resnet_v1_50/block3/unit_5/bottleneck_v1/conv2/BatchNorm/batchnorm_1/add_1"], "attr": {"T": {"type": "DT_FLOAT"}}}, {"name": "resnet_v1_50/block3/unit_5/bottleneck_v1/conv3/BatchNorm/batchnorm_1/add_1/conv", "op": "Conv2D", "input": ["resnet_v1_50/block3/unit_5/bottleneck_v1/conv2/Relu", "resnet_v1_50/block3/unit_5/bottleneck_v1/conv3/weights"], "attr": {"strides": {"list": {"i": ["1", "1", "1", "1"]}}, "data_format": {"s": "TkhXQw=="}, "explicit_paddings": {"list": {}}, "use_cudnn_on_gpu": {"b": true}, "padding": {"s": "U0FNRQ=="}, "dilations": {"list": {"i": ["1", "1", "1", "1"]}}, "T": {"type": "DT_FLOAT"}}}, {"name": "resnet_v1_50/block3/unit_5/bottleneck_v1/conv3/BatchNorm/batchnorm_1/add_1", "op": "BiasAdd", "input": ["resnet_v1_50/block3/unit_5/bottleneck_v1/conv3/BatchNorm/batchnorm_1/add_1/conv", "resnet_v1_50/block3/unit_5/bottleneck_v1/conv3/Conv2D_bias"], "attr": {"T": {"type": "DT_FLOAT"}, "data_format": {"s": "TkhXQw=="}}}, {"name": "resnet_v1_50/block3/unit_5/bottleneck_v1/add", "op": "Add", "input": ["resnet_v1_50/block3/unit_4/bottleneck_v1/Relu", "resnet_v1_50/block3/unit_5/bottleneck_v1/conv3/BatchNorm/batchnorm_1/add_1"], "attr": {"T": {"type": "DT_FLOAT"}}}, {"name": "resnet_v1_50/block3/unit_5/bottleneck_v1/Relu", "op": "Relu", "input": ["resnet_v1_50/block3/unit_5/bottleneck_v1/add"], "attr": {"T": {"type": "DT_FLOAT"}}}, {"name": "resnet_v1_50/block3/unit_6/bottleneck_v1/shortcut/MaxPool", "op": "MaxPool", "input": ["resnet_v1_50/block3/unit_5/bottleneck_v1/Relu"], "attr": {"ksize": {"list": {"i": ["1", "1", "1", "1"]}}, "padding": {"s": "U0FNRQ=="}, "T": {"type": "DT_FLOAT"}, "strides": {"list": {"i": ["1", "2", "2", "1"]}}, "data_format": {"s": "TkhXQw=="}}}, {"name": "resnet_v1_50/block3/unit_6/bottleneck_v1/conv1/BatchNorm/batchnorm_1/add_1/conv", "op": "Conv2D", "input": ["resnet_v1_50/block3/unit_5/bottleneck_v1/Relu", "resnet_v1_50/block3/unit_6/bottleneck_v1/conv1/weights"], "attr": {"padding": {"s": "U0FNRQ=="}, "dilations": {"list": {"i": ["1", "1", "1", "1"]}}, "T": {"type": "DT_FLOAT"}, "strides": {"list": {"i": ["1", "1", "1", "1"]}}, "data_format": {"s": "TkhXQw=="}, "use_cudnn_on_gpu": {"b": true}, "explicit_paddings": {"list": {}}}}, {"name": "resnet_v1_50/block3/unit_6/bottleneck_v1/conv1/BatchNorm/batchnorm_1/add_1", "op": "BiasAdd", "input": ["resnet_v1_50/block3/unit_6/bottleneck_v1/conv1/BatchNorm/batchnorm_1/add_1/conv", "resnet_v1_50/block3/unit_6/bottleneck_v1/conv1/Conv2D_bias"], "attr": {"T": {"type": "DT_FLOAT"}, "data_format": {"s": "TkhXQw=="}}}, {"name": "resnet_v1_50/block3/unit_6/bottleneck_v1/conv1/Relu", "op": "Relu", "input": ["resnet_v1_50/block3/unit_6/bottleneck_v1/conv1/BatchNorm/batchnorm_1/add_1"], "attr": {"T": {"type": "DT_FLOAT"}}}, {"name": "resnet_v1_50/block3/unit_6/bottleneck_v1/Pad", "op": "Pad", "input": ["resnet_v1_50/block3/unit_6/bottleneck_v1/conv1/Relu", "resnet_v1_50/Pad_1/paddings"], "attr": {"T": {"type": "DT_FLOAT"}, "Tpaddings": {"type": "DT_INT32"}}}, {"name": "resnet_v1_50/block3/unit_6/bottleneck_v1/conv2/BatchNorm/batchnorm_1/add_1/conv", "op": "Conv2D", "input": ["resnet_v1_50/block3/unit_6/bottleneck_v1/Pad", "resnet_v1_50/block3/unit_6/bottleneck_v1/conv2/weights"], "attr": {"padding": {"s": "VkFMSUQ="}, "dilations": {"list": {"i": ["1", "1", "1", "1"]}}, "T": {"type": "DT_FLOAT"}, "data_format": {"s": "TkhXQw=="}, "strides": {"list": {"i": ["1", "2", "2", "1"]}}, "explicit_paddings": {"list": {}}, "use_cudnn_on_gpu": {"b": true}}}, {"name": "resnet_v1_50/block3/unit_6/bottleneck_v1/conv2/BatchNorm/batchnorm_1/add_1", "op": "BiasAdd", "input": ["resnet_v1_50/block3/unit_6/bottleneck_v1/conv2/BatchNorm/batchnorm_1/add_1/conv", "resnet_v1_50/block3/unit_6/bottleneck_v1/conv2/Conv2D_bias"], "attr": {"data_format": {"s": "TkhXQw=="}, "T": {"type": "DT_FLOAT"}}}, {"name": "resnet_v1_50/block3/unit_6/bottleneck_v1/conv2/Relu", "op": "Relu", "input": ["resnet_v1_50/block3/unit_6/bottleneck_v1/conv2/BatchNorm/batchnorm_1/add_1"], "attr": {"T": {"type": "DT_FLOAT"}}}, {"name": "resnet_v1_50/block3/unit_6/bottleneck_v1/conv3/BatchNorm/batchnorm_1/add_1/conv", "op": "Conv2D", "input": ["resnet_v1_50/block3/unit_6/bottleneck_v1/conv2/Relu", "resnet_v1_50/block3/unit_6/bottleneck_v1/conv3/weights"], "attr": {"dilations": {"list": {"i": ["1", "1", "1", "1"]}}, "T": {"type": "DT_FLOAT"}, "strides": {"list": {"i": ["1", "1", "1", "1"]}}, "data_format": {"s": "TkhXQw=="}, "use_cudnn_on_gpu": {"b": true}, "explicit_paddings": {"list": {}}, "padding": {"s": "U0FNRQ=="}}}, {"name": "resnet_v1_50/block3/unit_6/bottleneck_v1/conv3/BatchNorm/batchnorm_1/add_1", "op": "BiasAdd", "input": ["resnet_v1_50/block3/unit_6/bottleneck_v1/conv3/BatchNorm/batchnorm_1/add_1/conv", "resnet_v1_50/block3/unit_6/bottleneck_v1/conv3/Conv2D_bias"], "attr": {"data_format": {"s": "TkhXQw=="}, "T": {"type": "DT_FLOAT"}}}, {"name": "resnet_v1_50/block3/unit_6/bottleneck_v1/add", "op": "Add", "input": ["resnet_v1_50/block3/unit_6/bottleneck_v1/conv3/BatchNorm/batchnorm_1/add_1", "resnet_v1_50/block3/unit_6/bottleneck_v1/shortcut/MaxPool"], "attr": {"T": {"type": "DT_FLOAT"}}}, {"name": "resnet_v1_50/block3/unit_6/bottleneck_v1/Relu", "op": "Relu", "input": ["resnet_v1_50/block3/unit_6/bottleneck_v1/add"], "attr": {"T": {"type": "DT_FLOAT"}}}, {"name": "resnet_v1_50/block4/unit_1/bottleneck_v1/shortcut/BatchNorm/batchnorm_1/add_1/conv", "op": "Conv2D", "input": ["resnet_v1_50/block3/unit_6/bottleneck_v1/Relu", "resnet_v1_50/block4/unit_1/bottleneck_v1/shortcut/weights"], "attr": {"strides": {"list": {"i": ["1", "1", "1", "1"]}}, "data_format": {"s": "TkhXQw=="}, "use_cudnn_on_gpu": {"b": true}, "explicit_paddings": {"list": {}}, "padding": {"s": "U0FNRQ=="}, "dilations": {"list": {"i": ["1", "1", "1", "1"]}}, "T": {"type": "DT_FLOAT"}}}, {"name": "resnet_v1_50/block4/unit_1/bottleneck_v1/conv1/BatchNorm/batchnorm_1/add_1/conv", "op": "Conv2D", "input": ["resnet_v1_50/block3/unit_6/bottleneck_v1/Relu", "resnet_v1_50/block4/unit_1/bottleneck_v1/conv1/weights"], "attr": {"padding": {"s": "U0FNRQ=="}, "dilations": {"list": {"i": ["1", "1", "1", "1"]}}, "T": {"type": "DT_FLOAT"}, "data_format": {"s": "TkhXQw=="}, "strides": {"list": {"i": ["1", "1", "1", "1"]}}, "explicit_paddings": {"list": {}}, "use_cudnn_on_gpu": {"b": true}}}, {"name": "resnet_v1_50/block4/unit_1/bottleneck_v1/shortcut/BatchNorm/batchnorm_1/add_1", "op": "BiasAdd", "input": ["resnet_v1_50/block4/unit_1/bottleneck_v1/shortcut/BatchNorm/batchnorm_1/add_1/conv", "resnet_v1_50/block4/unit_1/bottleneck_v1/shortcut/Conv2D_bias"], "attr": {"T": {"type": "DT_FLOAT"}, "data_format": {"s": "TkhXQw=="}}}, {"name": "resnet_v1_50/block4/unit_1/bottleneck_v1/conv1/BatchNorm/batchnorm_1/add_1", "op": "BiasAdd", "input": ["resnet_v1_50/block4/unit_1/bottleneck_v1/conv1/BatchNorm/batchnorm_1/add_1/conv", "resnet_v1_50/block4/unit_1/bottleneck_v1/conv1/Conv2D_bias"], "attr": {"T": {"type": "DT_FLOAT"}, "data_format": {"s": "TkhXQw=="}}}, {"name": "resnet_v1_50/block4/unit_1/bottleneck_v1/conv1/Relu", "op": "Relu", "input": ["resnet_v1_50/block4/unit_1/bottleneck_v1/conv1/BatchNorm/batchnorm_1/add_1"], "attr": {"T": {"type": "DT_FLOAT"}}}, {"name": "resnet_v1_50/block4/unit_1/bottleneck_v1/conv2/BatchNorm/batchnorm_1/add_1/conv", "op": "Conv2D", "input": ["resnet_v1_50/block4/unit_1/bottleneck_v1/conv1/Relu", "resnet_v1_50/block4/unit_1/bottleneck_v1/conv2/weights"], "attr": {"dilations": {"list": {"i": ["1", "1", "1", "1"]}}, "T": {"type": "DT_FLOAT"}, "data_format": {"s": "TkhXQw=="}, "strides": {"list": {"i": ["1", "1", "1", "1"]}}, "explicit_paddings": {"list": {}}, "use_cudnn_on_gpu": {"b": true}, "padding": {"s": "U0FNRQ=="}}}, {"name": "resnet_v1_50/block4/unit_1/bottleneck_v1/conv2/BatchNorm/batchnorm_1/add_1", "op": "BiasAdd", "input": ["resnet_v1_50/block4/unit_1/bottleneck_v1/conv2/BatchNorm/batchnorm_1/add_1/conv", "resnet_v1_50/block4/unit_1/bottleneck_v1/conv2/Conv2D_bias"], "attr": {"T": {"type": "DT_FLOAT"}, "data_format": {"s": "TkhXQw=="}}}, {"name": "resnet_v1_50/block4/unit_1/bottleneck_v1/conv2/Relu", "op": "Relu", "input": ["resnet_v1_50/block4/unit_1/bottleneck_v1/conv2/BatchNorm/batchnorm_1/add_1"], "attr": {"T": {"type": "DT_FLOAT"}}}, {"name": "resnet_v1_50/block4/unit_1/bottleneck_v1/conv3/BatchNorm/batchnorm_1/add_1/conv", "op": "Conv2D", "input": ["resnet_v1_50/block4/unit_1/bottleneck_v1/conv2/Relu", "resnet_v1_50/block4/unit_1/bottleneck_v1/conv3/weights"], "attr": {"padding": {"s": "U0FNRQ=="}, "dilations": {"list": {"i": ["1", "1", "1", "1"]}}, "T": {"type": "DT_FLOAT"}, "strides": {"list": {"i": ["1", "1", "1", "1"]}}, "data_format": {"s": "TkhXQw=="}, "use_cudnn_on_gpu": {"b": true}, "explicit_paddings": {"list": {}}}}, {"name": "resnet_v1_50/block4/unit_1/bottleneck_v1/conv3/BatchNorm/batchnorm_1/add_1", "op": "BiasAdd", "input": ["resnet_v1_50/block4/unit_1/bottleneck_v1/conv3/BatchNorm/batchnorm_1/add_1/conv", "resnet_v1_50/block4/unit_1/bottleneck_v1/conv3/Conv2D_bias"], "attr": {"T": {"type": "DT_FLOAT"}, "data_format": {"s": "TkhXQw=="}}}, {"name": "resnet_v1_50/block4/unit_1/bottleneck_v1/add", "op": "Add", "input": ["resnet_v1_50/block4/unit_1/bottleneck_v1/conv3/BatchNorm/batchnorm_1/add_1", "resnet_v1_50/block4/unit_1/bottleneck_v1/shortcut/BatchNorm/batchnorm_1/add_1"], "attr": {"T": {"type": "DT_FLOAT"}}}, {"name": "resnet_v1_50/block4/unit_1/bottleneck_v1/Relu", "op": "Relu", "input": ["resnet_v1_50/block4/unit_1/bottleneck_v1/add"], "attr": {"T": {"type": "DT_FLOAT"}}}, {"name": "resnet_v1_50/block4/unit_2/bottleneck_v1/conv1/BatchNorm/batchnorm_1/add_1/conv", "op": "Conv2D", "input": ["resnet_v1_50/block4/unit_1/bottleneck_v1/Relu", "resnet_v1_50/block4/unit_2/bottleneck_v1/conv1/weights"], "attr": {"T": {"type": "DT_FLOAT"}, "strides": {"list": {"i": ["1", "1", "1", "1"]}}, "data_format": {"s": "TkhXQw=="}, "use_cudnn_on_gpu": {"b": true}, "explicit_paddings": {"list": {}}, "padding": {"s": "U0FNRQ=="}, "dilations": {"list": {"i": ["1", "1", "1", "1"]}}}}, {"name": "resnet_v1_50/block4/unit_2/bottleneck_v1/conv1/BatchNorm/batchnorm_1/add_1", "op": "BiasAdd", "input": ["resnet_v1_50/block4/unit_2/bottleneck_v1/conv1/BatchNorm/batchnorm_1/add_1/conv", "resnet_v1_50/block4/unit_2/bottleneck_v1/conv1/Conv2D_bias"], "attr": {"T": {"type": "DT_FLOAT"}, "data_format": {"s": "TkhXQw=="}}}, {"name": "resnet_v1_50/block4/unit_2/bottleneck_v1/conv1/Relu", "op": "Relu", "input": ["resnet_v1_50/block4/unit_2/bottleneck_v1/conv1/BatchNorm/batchnorm_1/add_1"], "attr": {"T": {"type": "DT_FLOAT"}}}, {"name": "resnet_v1_50/block4/unit_2/bottleneck_v1/conv2/BatchNorm/batchnorm_1/add_1/conv", "op": "Conv2D", "input": ["resnet_v1_50/block4/unit_2/bottleneck_v1/conv1/Relu", "resnet_v1_50/block4/unit_2/bottleneck_v1/conv2/weights"], "attr": {"dilations": {"list": {"i": ["1", "1", "1", "1"]}}, "T": {"type": "DT_FLOAT"}, "data_format": {"s": "TkhXQw=="}, "strides": {"list": {"i": ["1", "1", "1", "1"]}}, "explicit_paddings": {"list": {}}, "use_cudnn_on_gpu": {"b": true}, "padding": {"s": "U0FNRQ=="}}}, {"name": "resnet_v1_50/block4/unit_2/bottleneck_v1/conv2/BatchNorm/batchnorm_1/add_1", "op": "BiasAdd", "input": ["resnet_v1_50/block4/unit_2/bottleneck_v1/conv2/BatchNorm/batchnorm_1/add_1/conv", "resnet_v1_50/block4/unit_2/bottleneck_v1/conv2/Conv2D_bias"], "attr": {"T": {"type": "DT_FLOAT"}, "data_format": {"s": "TkhXQw=="}}}, {"name": "resnet_v1_50/block4/unit_2/bottleneck_v1/conv2/Relu", "op": "Relu", "input": ["resnet_v1_50/block4/unit_2/bottleneck_v1/conv2/BatchNorm/batchnorm_1/add_1"], "attr": {"T": {"type": "DT_FLOAT"}}}, {"name": "resnet_v1_50/block4/unit_2/bottleneck_v1/conv3/BatchNorm/batchnorm_1/add_1/conv", "op": "Conv2D", "input": ["resnet_v1_50/block4/unit_2/bottleneck_v1/conv2/Relu", "resnet_v1_50/block4/unit_2/bottleneck_v1/conv3/weights"], "attr": {"T": {"type": "DT_FLOAT"}, "strides": {"list": {"i": ["1", "1", "1", "1"]}}, "data_format": {"s": "TkhXQw=="}, "explicit_paddings": {"list": {}}, "use_cudnn_on_gpu": {"b": true}, "padding": {"s": "U0FNRQ=="}, "dilations": {"list": {"i": ["1", "1", "1", "1"]}}}}, {"name": "resnet_v1_50/block4/unit_2/bottleneck_v1/conv3/BatchNorm/batchnorm_1/add_1", "op": "BiasAdd", "input": ["resnet_v1_50/block4/unit_2/bottleneck_v1/conv3/BatchNorm/batchnorm_1/add_1/conv", "resnet_v1_50/block4/unit_2/bottleneck_v1/conv3/Conv2D_bias"], "attr": {"T": {"type": "DT_FLOAT"}, "data_format": {"s": "TkhXQw=="}}}, {"name": "resnet_v1_50/block4/unit_2/bottleneck_v1/add", "op": "Add", "input": ["resnet_v1_50/block4/unit_1/bottleneck_v1/Relu", "resnet_v1_50/block4/unit_2/bottleneck_v1/conv3/BatchNorm/batchnorm_1/add_1"], "attr": {"T": {"type": "DT_FLOAT"}}}, {"name": "resnet_v1_50/block4/unit_2/bottleneck_v1/Relu", "op": "Relu", "input": ["resnet_v1_50/block4/unit_2/bottleneck_v1/add"], "attr": {"T": {"type": "DT_FLOAT"}}}, {"name": "resnet_v1_50/block4/unit_3/bottleneck_v1/conv1/BatchNorm/batchnorm_1/add_1/conv", "op": "Conv2D", "input": ["resnet_v1_50/block4/unit_2/bottleneck_v1/Relu", "resnet_v1_50/block4/unit_3/bottleneck_v1/conv1/weights"], "attr": {"dilations": {"list": {"i": ["1", "1", "1", "1"]}}, "T": {"type": "DT_FLOAT"}, "data_format": {"s": "TkhXQw=="}, "strides": {"list": {"i": ["1", "1", "1", "1"]}}, "use_cudnn_on_gpu": {"b": true}, "explicit_paddings": {"list": {}}, "padding": {"s": "U0FNRQ=="}}}, {"name": "resnet_v1_50/block4/unit_3/bottleneck_v1/conv1/BatchNorm/batchnorm_1/add_1", "op": "BiasAdd", "input": ["resnet_v1_50/block4/unit_3/bottleneck_v1/conv1/BatchNorm/batchnorm_1/add_1/conv", "resnet_v1_50/block4/unit_3/bottleneck_v1/conv1/Conv2D_bias"], "attr": {"T": {"type": "DT_FLOAT"}, "data_format": {"s": "TkhXQw=="}}}, {"name": "resnet_v1_50/block4/unit_3/bottleneck_v1/conv1/Relu", "op": "Relu", "input": ["resnet_v1_50/block4/unit_3/bottleneck_v1/conv1/BatchNorm/batchnorm_1/add_1"], "attr": {"T": {"type": "DT_FLOAT"}}}, {"name": "resnet_v1_50/block4/unit_3/bottleneck_v1/conv2/BatchNorm/batchnorm_1/add_1/conv", "op": "Conv2D", "input": ["resnet_v1_50/block4/unit_3/bottleneck_v1/conv1/Relu", "resnet_v1_50/block4/unit_3/bottleneck_v1/conv2/weights"], "attr": {"data_format": {"s": "TkhXQw=="}, "strides": {"list": {"i": ["1", "1", "1", "1"]}}, "use_cudnn_on_gpu": {"b": true}, "explicit_paddings": {"list": {}}, "padding": {"s": "U0FNRQ=="}, "dilations": {"list": {"i": ["1", "1", "1", "1"]}}, "T": {"type": "DT_FLOAT"}}}, {"name": "resnet_v1_50/block4/unit_3/bottleneck_v1/conv2/BatchNorm/batchnorm_1/add_1", "op": "BiasAdd", "input": ["resnet_v1_50/block4/unit_3/bottleneck_v1/conv2/BatchNorm/batchnorm_1/add_1/conv", "resnet_v1_50/block4/unit_3/bottleneck_v1/conv2/Conv2D_bias"], "attr": {"data_format": {"s": "TkhXQw=="}, "T": {"type": "DT_FLOAT"}}}, {"name": "resnet_v1_50/block4/unit_3/bottleneck_v1/conv2/Relu", "op": "Relu", "input": ["resnet_v1_50/block4/unit_3/bottleneck_v1/conv2/BatchNorm/batchnorm_1/add_1"], "attr": {"T": {"type": "DT_FLOAT"}}}, {"name": "resnet_v1_50/block4/unit_3/bottleneck_v1/conv3/BatchNorm/batchnorm_1/add_1/conv", "op": "Conv2D", "input": ["resnet_v1_50/block4/unit_3/bottleneck_v1/conv2/Relu", "resnet_v1_50/block4/unit_3/bottleneck_v1/conv3/weights"], "attr": {"dilations": {"list": {"i": ["1", "1", "1", "1"]}}, "T": {"type": "DT_FLOAT"}, "data_format": {"s": "TkhXQw=="}, "strides": {"list": {"i": ["1", "1", "1", "1"]}}, "use_cudnn_on_gpu": {"b": true}, "explicit_paddings": {"list": {}}, "padding": {"s": "U0FNRQ=="}}}, {"name": "resnet_v1_50/block4/unit_3/bottleneck_v1/conv3/BatchNorm/batchnorm_1/add_1", "op": "BiasAdd", "input": ["resnet_v1_50/block4/unit_3/bottleneck_v1/conv3/BatchNorm/batchnorm_1/add_1/conv", "resnet_v1_50/block4/unit_3/bottleneck_v1/conv3/Conv2D_bias"], "attr": {"T": {"type": "DT_FLOAT"}, "data_format": {"s": "TkhXQw=="}}}, {"name": "resnet_v1_50/block4/unit_3/bottleneck_v1/add", "op": "Add", "input": ["resnet_v1_50/block4/unit_2/bottleneck_v1/Relu", "resnet_v1_50/block4/unit_3/bottleneck_v1/conv3/BatchNorm/batchnorm_1/add_1"], "attr": {"T": {"type": "DT_FLOAT"}}}, {"name": "resnet_v1_50/block4/unit_3/bottleneck_v1/Relu", "op": "Relu", "input": ["resnet_v1_50/block4/unit_3/bottleneck_v1/add"], "attr": {"T": {"type": "DT_FLOAT"}}}, {"name": "resnet_v1_50/displacement_fwd_2/BiasAdd/conv", "op": "Conv2D", "input": ["resnet_v1_50/block4/unit_3/bottleneck_v1/Relu", "resnet_v1_50/displacement_fwd_2/weights"], "attr": {"dilations": {"list": {"i": ["1", "1", "1", "1"]}}, "T": {"type": "DT_FLOAT"}, "strides": {"list": {"i": ["1", "1", "1", "1"]}}, "data_format": {"s": "TkhXQw=="}, "use_cudnn_on_gpu": {"b": true}, "explicit_paddings": {"list": {}}, "padding": {"s": "U0FNRQ=="}}}, {"name": "resnet_v1_50/displacement_bwd_2/BiasAdd/conv", "op": "Conv2D", "input": ["resnet_v1_50/block4/unit_3/bottleneck_v1/Relu", "resnet_v1_50/displacement_bwd_2/weights"], "attr": {"padding": {"s": "U0FNRQ=="}, "dilations": {"list": {"i": ["1", "1", "1", "1"]}}, "T": {"type": "DT_FLOAT"}, "data_format": {"s": "TkhXQw=="}, "strides": {"list": {"i": ["1", "1", "1", "1"]}}, "explicit_paddings": {"list": {}}, "use_cudnn_on_gpu": {"b": true}}}, {"name": "float_short_offsets/conv", "op": "Conv2D", "input": ["resnet_v1_50/block4/unit_3/bottleneck_v1/Relu", "resnet_v1_50/offset_2/weights"], "attr": {"dilations": {"list": {"i": ["1", "1", "1", "1"]}}, "T": {"type": "DT_FLOAT"}, "data_format": {"s": "TkhXQw=="}, "strides": {"list": {"i": ["1", "1", "1", "1"]}}, "use_cudnn_on_gpu": {"b": true}, "explicit_paddings": {"list": {}}, "padding": {"s": "U0FNRQ=="}}}, {"name": "float_heatmaps/conv", "op": "Conv2D", "input": ["resnet_v1_50/block4/unit_3/bottleneck_v1/Relu", "resnet_v1_50/heatmap_2/weights"], "attr": {"padding": {"s": "U0FNRQ=="}, "dilations": {"list": {"i": ["1", "1", "1", "1"]}}, "T": {"type": "DT_FLOAT"}, "strides": {"list": {"i": ["1", "1", "1", "1"]}}, "data_format": {"s": "TkhXQw=="}, "explicit_paddings": {"list": {}}, "use_cudnn_on_gpu": {"b": true}}}, {"name": "resnet_v1_50/displacement_fwd_2/BiasAdd", "op": "BiasAdd", "input": ["resnet_v1_50/displacement_fwd_2/BiasAdd/conv", "resnet_v1_50/displacement_fwd_2/Conv2D_bias"], "attr": {"T": {"type": "DT_FLOAT"}, "data_format": {"s": "TkhXQw=="}}}, {"name": "resnet_v1_50/displacement_bwd_2/BiasAdd", "op": "BiasAdd", "input": ["resnet_v1_50/displacement_bwd_2/BiasAdd/conv", "resnet_v1_50/displacement_bwd_2/Conv2D_bias"], "attr": {"data_format": {"s": "TkhXQw=="}, "T": {"type": "DT_FLOAT"}}}, {"name": "float_short_offsets", "op": "BiasAdd", "input": ["float_short_offsets/conv", "resnet_v1_50/offset_2/Conv2D_bias"], "attr": {"data_format": {"s": "TkhXQw=="}, "T": {"type": "DT_FLOAT"}}}, {"name": "float_heatmaps", "op": "BiasAdd", "input": ["float_heatmaps/conv", "resnet_v1_50/heatmap_2/Conv2D_bias"], "attr": {"T": {"type": "DT_FLOAT"}, "data_format": {"s": "TkhXQw=="}}}], "library": {}, "versions": {"producer": 54}}, "weightsManifest": [{"paths": ["group1-shard1of6.bin", "group1-shard2of6.bin", "group1-shard3of6.bin", "group1-shard4of6.bin", "group1-shard5of6.bin", "group1-shard6of6.bin"], "weights": [{"name": "resnet_v1_50/displacement_fwd_2/Conv2D_bias", "shape": [32], "dtype": "float32", "quantization": {"min": -0.010841216760523178, "scale": 0.00022585868251089955, "dtype": "uint8"}}, {"name": "resnet_v1_50/displacement_fwd_2/weights", "shape": [1, 1, 2048, 32], "dtype": "float32", "quantization": {"min": -0.44514450781485615, "scale": 0.005116603538101795, "dtype": "uint8"}}, {"name": "resnet_v1_50/block4/unit_3/bottleneck_v1/conv3/Conv2D_bias", "shape": [2048], "dtype": "float32", "quantization": {"min": -4.597608173594756, "scale": 0.024325969172459022, "dtype": "uint8"}}, {"name": "resnet_v1_50/block4/unit_3/bottleneck_v1/conv3/weights", "shape": [1, 1, 512, 2048], "dtype": "float32", "quantization": {"min": -4.84329958710016, "scale": 0.036415786369174134, "dtype": "uint8"}}, {"name": "resnet_v1_50/block4/unit_3/bottleneck_v1/conv2/Conv2D_bias", "shape": [512], "dtype": "float32", "quantization": {"min": -2.2329173578935513, "scale": 0.013057996244991528, "dtype": "uint8"}}, {"name": "resnet_v1_50/block4/unit_3/bottleneck_v1/conv2/weights", "shape": [3, 3, 512, 512], "dtype": "float32", "quantization": {"min": -0.7577014088630677, "scale": 0.006476080417633057, "dtype": "uint8"}}, {"name": "resnet_v1_50/block4/unit_3/bottleneck_v1/conv1/Conv2D_bias", "shape": [512], "dtype": "float32", "quantization": {"min": -2.7305174088945576, "scale": 0.020530206081913967, "dtype": "uint8"}}, {"name": "resnet_v1_50/block4/unit_3/bottleneck_v1/conv1/weights", "shape": [1, 1, 2048, 512], "dtype": "float32", "quantization": {"min": -0.10337924381681518, "scale": 0.0008140097938331903, "dtype": "uint8"}}, {"name": "resnet_v1_50/block4/unit_2/bottleneck_v1/conv3/Conv2D_bias", "shape": [2048], "dtype": "float32", "quantization": {"min": -8.440120852227304, "scale": 0.049941543504303576, "dtype": "uint8"}}, {"name": "resnet_v1_50/block4/unit_2/bottleneck_v1/conv3/weights", "shape": [1, 1, 512, 2048], "dtype": "float32", "quantization": {"min": -6.984239673614502, "scale": 0.05678243637084961, "dtype": "uint8"}}, {"name": "resnet_v1_50/block4/unit_2/bottleneck_v1/conv2/Conv2D_bias", "shape": [512], "dtype": "float32", "quantization": {"min": -2.2105911329680796, "scale": 0.014936426574108647, "dtype": "uint8"}}, {"name": "resnet_v1_50/block4/unit_2/bottleneck_v1/conv2/weights", "shape": [3, 3, 512, 512], "dtype": "float32", "quantization": {"min": -0.46289888772309995, "scale": 0.003825610642339669, "dtype": "uint8"}}, {"name": "resnet_v1_50/block4/unit_2/bottleneck_v1/conv1/Conv2D_bias", "shape": [512], "dtype": "float32", "quantization": {"min": -3.252487003102022, "scale": 0.0169400364744897, "dtype": "uint8"}}, {"name": "resnet_v1_50/block4/unit_2/bottleneck_v1/conv1/weights", "shape": [1, 1, 2048, 512], "dtype": "float32", "quantization": {"min": -0.11189305396641003, "scale": 0.001036046795985278, "dtype": "uint8"}}, {"name": "resnet_v1_50/block4/unit_1/bottleneck_v1/shortcut/Conv2D_bias", "shape": [2048], "dtype": "float32", "quantization": {"min": -4.917849200379615, "scale": 0.039660074196609794, "dtype": "uint8"}}, {"name": "resnet_v1_50/block4/unit_1/bottleneck_v1/shortcut/weights", "shape": [1, 1, 1024, 2048], "dtype": "float32", "quantization": {"min": -2.385477528852575, "scale": 0.016451569164500517, "dtype": "uint8"}}, {"name": "resnet_v1_50/block3/unit_5/bottleneck_v1/conv3/Conv2D_bias", "shape": [1024], "dtype": "float32", "quantization": {"min": -3.724238620084875, "scale": 0.020462849560905907, "dtype": "uint8"}}, {"name": "resnet_v1_50/block3/unit_5/bottleneck_v1/conv3/weights", "shape": [1, 1, 256, 1024], "dtype": "float32", "quantization": {"min": -1.1532183740653243, "scale": 0.009941537707459694, "dtype": "uint8"}}, {"name": "resnet_v1_50/block3/unit_5/bottleneck_v1/conv2/Conv2D_bias", "shape": [256], "dtype": "float32", "quantization": {"min": -2.2973678196177763, "scale": 0.011842102162978228, "dtype": "uint8"}}, {"name": "resnet_v1_50/block3/unit_5/bottleneck_v1/conv2/weights", "shape": [3, 3, 256, 256], "dtype": "float32", "quantization": {"min": -0.8863567660836612, "scale": 0.00646975741666906, "dtype": "uint8"}}, {"name": "resnet_v1_50/block3/unit_5/bottleneck_v1/conv1/Conv2D_bias", "shape": [256], "dtype": "float32", "quantization": {"min": -1.775182454258788, "scale": 0.009917220414853564, "dtype": "uint8"}}, {"name": "resnet_v1_50/block3/unit_5/bottleneck_v1/conv1/weights", "shape": [1, 1, 1024, 256], "dtype": "float32", "quantization": {"min": -0.25324304138912873, "scale": 0.0024118384894202738, "dtype": "uint8"}}, {"name": "resnet_v1_50/block3/unit_4/bottleneck_v1/conv3/Conv2D_bias", "shape": [1024], "dtype": "float32", "quantization": {"min": -1.4166370737786387, "scale": 0.011707744411393708, "dtype": "uint8"}}, {"name": "resnet_v1_50/block3/unit_4/bottleneck_v1/conv3/weights", "shape": [1, 1, 256, 1024], "dtype": "float32", "quantization": {"min": -2.8664402512943044, "scale": 0.020771306168799308, "dtype": "uint8"}}, {"name": "resnet_v1_50/block3/unit_4/bottleneck_v1/conv2/Conv2D_bias", "shape": [256], "dtype": "float32", "quantization": {"min": -2.8739431325127094, "scale": 0.016516914554670744, "dtype": "uint8"}}, {"name": "resnet_v1_50/block3/unit_4/bottleneck_v1/conv2/weights", "shape": [3, 3, 256, 256], "dtype": "float32", "quantization": {"min": -0.6391623833600213, "scale": 0.005154535349677591, "dtype": "uint8"}}, {"name": "resnet_v1_50/block3/unit_4/bottleneck_v1/conv1/Conv2D_bias", "shape": [256], "dtype": "float32", "quantization": {"min": -2.215739253923005, "scale": 0.012807741352156097, "dtype": "uint8"}}, {"name": "resnet_v1_50/block3/unit_4/bottleneck_v1/conv1/weights", "shape": [1, 1, 1024, 256], "dtype": "float32", "quantization": {"min": -0.19166004424001656, "scale": 0.00184288504076939, "dtype": "uint8"}}, {"name": "resnet_v1_50/block3/unit_3/bottleneck_v1/conv3/Conv2D_bias", "shape": [1024], "dtype": "float32", "quantization": {"min": -2.18767572851742, "scale": 0.0145845048567828, "dtype": "uint8"}}, {"name": "resnet_v1_50/block3/unit_3/bottleneck_v1/conv3/weights", "shape": [1, 1, 256, 1024], "dtype": "float32", "quantization": {"min": -1.2883187406203325, "scale": 0.011301041584388882, "dtype": "uint8"}}, {"name": "resnet_v1_50/block3/unit_3/bottleneck_v1/conv2/Conv2D_bias", "shape": [256], "dtype": "float32", "quantization": {"min": -1.8819879083072437, "scale": 0.012546586055381625, "dtype": "uint8"}}, {"name": "resnet_v1_50/block3/unit_3/bottleneck_v1/conv2/weights", "shape": [3, 3, 256, 256], "dtype": "float32", "quantization": {"min": -0.5617943756720599, "scale": 0.004494355005376479, "dtype": "uint8"}}, {"name": "resnet_v1_50/block3/unit_3/bottleneck_v1/conv1/Conv2D_bias", "shape": [256], "dtype": "float32", "quantization": {"min": -2.615621347988353, "scale": 0.01406248036552878, "dtype": "uint8"}}, {"name": "resnet_v1_50/block3/unit_3/bottleneck_v1/conv1/weights", "shape": [1, 1, 1024, 256], "dtype": "float32", "quantization": {"min": -0.3729650670406865, "scale": 0.002868962054159127, "dtype": "uint8"}}, {"name": "resnet_v1_50/block3/unit_2/bottleneck_v1/conv3/Conv2D_bias", "shape": [1024], "dtype": "float32", "quantization": {"min": -2.4261076197904696, "scale": 0.01837960318023083, "dtype": "uint8"}}, {"name": "resnet_v1_50/block3/unit_2/bottleneck_v1/conv3/weights", "shape": [1, 1, 256, 1024], "dtype": "float32", "quantization": {"min": -4.611510318868301, "scale": 0.024793066230474736, "dtype": "uint8"}}, {"name": "resnet_v1_50/block3/unit_2/bottleneck_v1/conv2/Conv2D_bias", "shape": [256], "dtype": "float32", "quantization": {"min": -2.0352134704589844, "scale": 0.019382985432942708, "dtype": "uint8"}}, {"name": "resnet_v1_50/block3/unit_2/bottleneck_v1/conv2/weights", "shape": [3, 3, 256, 256], "dtype": "float32", "quantization": {"min": -0.4669776678085328, "scale": 0.004578212429495419, "dtype": "uint8"}}, {"name": "resnet_v1_50/block3/unit_2/bottleneck_v1/conv1/Conv2D_bias", "shape": [256], "dtype": "float32", "quantization": {"min": -2.262301602083094, "scale": 0.017537221721574372, "dtype": "uint8"}}, {"name": "resnet_v1_50/block3/unit_2/bottleneck_v1/conv1/weights", "shape": [1, 1, 1024, 256], "dtype": "float32", "quantization": {"min": -0.24530071697983089, "scale": 0.0025030685406105192, "dtype": "uint8"}}, {"name": "resnet_v1_50/block3/unit_1/bottleneck_v1/shortcut/Conv2D_bias", "shape": [1024], "dtype": "float32", "quantization": {"min": -3.221509313583374, "scale": 0.027071506836835076, "dtype": "uint8"}}, {"name": "resnet_v1_50/block3/unit_1/bottleneck_v1/shortcut/weights", "shape": [1, 1, 512, 1024], "dtype": "float32", "quantization": {"min": -0.8230487921658685, "scale": 0.009460330944435269, "dtype": "uint8"}}, {"name": "resnet_v1_50/block2/unit_3/bottleneck_v1/conv3/Conv2D_bias", "shape": [512], "dtype": "float32", "quantization": {"min": -1.9293931933010326, "scale": 0.018375173269533644, "dtype": "uint8"}}, {"name": "resnet_v1_50/block2/unit_3/bottleneck_v1/conv3/weights", "shape": [1, 1, 128, 512], "dtype": "float32", "quantization": {"min": -4.5511737823486325, "scale": 0.032979520161946614, "dtype": "uint8"}}, {"name": "resnet_v1_50/block2/unit_3/bottleneck_v1/conv2/Conv2D_bias", "shape": [128], "dtype": "float32", "quantization": {"min": -2.706585272620706, "scale": 0.01487134765176212, "dtype": "uint8"}}, {"name": "resnet_v1_50/block2/unit_3/bottleneck_v1/conv2/weights", "shape": [3, 3, 128, 128], "dtype": "float32", "quantization": {"min": -0.7067238340190813, "scale": 0.005989185034060011, "dtype": "uint8"}}, {"name": "resnet_v1_50/block2/unit_3/bottleneck_v1/conv1/Conv2D_bias", "shape": [128], "dtype": "float32", "quantization": {"min": -2.62501578985476, "scale": 0.01848602668911803, "dtype": "uint8"}}, {"name": "resnet_v1_50/block2/unit_3/bottleneck_v1/conv1/weights", "shape": [1, 1, 512, 128], "dtype": "float32", "quantization": {"min": -0.333912826870002, "scale": 0.004983773535373165, "dtype": "uint8"}}, {"name": "resnet_v1_50/block2/unit_2/bottleneck_v1/conv3/Conv2D_bias", "shape": [512], "dtype": "float32", "quantization": {"min": -2.0031651702581668, "scale": 0.019448205536487056, "dtype": "uint8"}}, {"name": "resnet_v1_50/block2/unit_2/bottleneck_v1/conv3/weights", "shape": [1, 1, 128, 512], "dtype": "float32", "quantization": {"min": -2.5076840484843537, "scale": 0.018575437396180398, "dtype": "uint8"}}, {"name": "resnet_v1_50/block2/unit_2/bottleneck_v1/conv2/Conv2D_bias", "shape": [128], "dtype": "float32", "quantization": {"min": -1.1613653613071815, "scale": 0.010654728085386986, "dtype": "uint8"}}, {"name": "resnet_v1_50/block2/unit_2/bottleneck_v1/conv2/weights", "shape": [3, 3, 128, 128], "dtype": "float32", "quantization": {"min": -0.6423842729306688, "scale": 0.0053089609333113125, "dtype": "uint8"}}, {"name": "resnet_v1_50/block2/unit_2/bottleneck_v1/conv1/Conv2D_bias", "shape": [128], "dtype": "float32", "quantization": {"min": -3.3513637168734682, "scale": 0.019041839300417432, "dtype": "uint8"}}, {"name": "resnet_v1_50/block2/unit_2/bottleneck_v1/conv1/weights", "shape": [1, 1, 512, 128], "dtype": "float32", "quantization": {"min": -0.34641057907366285, "scale": 0.002372675199134677, "dtype": "uint8"}}, {"name": "resnet_v1_50/block2/unit_1/bottleneck_v1/shortcut/Conv2D_bias", "shape": [512], "dtype": "float32", "quantization": {"min": -3.434389119989732, "scale": 0.035406073401956, "dtype": "uint8"}}, {"name": "resnet_v1_50/block2/unit_1/bottleneck_v1/shortcut/weights", "shape": [1, 1, 256, 512], "dtype": "float32", "quantization": {"min": -1.9541783762913125, "scale": 0.013203907947914274, "dtype": "uint8"}}, {"name": "resnet_v1_50/block1/unit_2/bottleneck_v1/conv3/Conv2D_bias", "shape": [256], "dtype": "float32", "quantization": {"min": -4.634539317149742, "scale": 0.031104290719125786, "dtype": "uint8"}}, {"name": "resnet_v1_50/block1/unit_2/bottleneck_v1/conv3/weights", "shape": [1, 1, 64, 256], "dtype": "float32", "quantization": {"min": -2.3536694246179914, "scale": 0.019135523777382046, "dtype": "uint8"}}, {"name": "resnet_v1_50/block1/unit_2/bottleneck_v1/conv2/Conv2D_bias", "shape": [64], "dtype": "float32", "quantization": {"min": -2.5339377263013056, "scale": 0.016037580546210795, "dtype": "uint8"}}, {"name": "resnet_v1_50/block1/unit_2/bottleneck_v1/conv2/weights", "shape": [3, 3, 64, 64], "dtype": "float32", "quantization": {"min": -0.6526402866139132, "scale": 0.006798336318894929, "dtype": "uint8"}}, {"name": "resnet_v1_50/block1/unit_2/bottleneck_v1/conv1/Conv2D_bias", "shape": [64], "dtype": "float32", "quantization": {"min": -2.8476052798476874, "scale": 0.019638657102397844, "dtype": "uint8"}}, {"name": "resnet_v1_50/block1/unit_2/bottleneck_v1/conv1/weights", "shape": [1, 1, 256, 64], "dtype": "float32", "quantization": {"min": -0.7379203133723314, "scale": 0.004641008260203343, "dtype": "uint8"}}, {"name": "resnet_v1_50/block1/unit_1/bottleneck_v1/shortcut/Conv2D_bias", "shape": [256], "dtype": "float32", "quantization": {"min": -5.1375320995555205, "scale": 0.052423796934240006, "dtype": "uint8"}}, {"name": "resnet_v1_50/block1/unit_1/bottleneck_v1/shortcut/weights", "shape": [1, 1, 64, 256], "dtype": "float32", "quantization": {"min": -3.042977811775956, "scale": 0.019382024278827743, "dtype": "uint8"}}, {"name": "resnet_v1_50/Pad_1/paddings", "shape": [4, 2], "dtype": "int32", "quantization": {"min": -0.0, "scale": 0.00392156862745098, "dtype": "uint8"}}, {"name": "resnet_v1_50/conv1/Conv2D_bias", "shape": [64], "dtype": "float32", "quantization": {"min": -3.500255168653002, "scale": 0.024477308871699313, "dtype": "uint8"}}, {"name": "resnet_v1_50/conv1/weights", "shape": [7, 7, 3, 64], "dtype": "float32", "quantization": {"min": -0.06380049954442417, "scale": 0.00048333711776078915, "dtype": "uint8"}}, {"name": "resnet_v1_50/Pad/paddings", "shape": [4, 2], "dtype": "int32", "quantization": {"min": -0.0, "scale": 0.011764705882352941, "dtype": "uint8"}}, {"name": "resnet_v1_50/block1/unit_1/bottleneck_v1/conv3/Conv2D_bias", "shape": [256], "dtype": "float32", "quantization": {"min": -4.580520727120194, "scale": 0.04447107502058441, "dtype": "uint8"}}, {"name": "resnet_v1_50/block1/unit_1/bottleneck_v1/conv3/weights", "shape": [1, 1, 64, 256], "dtype": "float32", "quantization": {"min": -3.3953614085328345, "scale": 0.02478365991629806, "dtype": "uint8"}}, {"name": "resnet_v1_50/block1/unit_1/bottleneck_v1/conv2/Conv2D_bias", "shape": [64], "dtype": "float32", "quantization": {"min": -2.5221498115389953, "scale": 0.02932732338998832, "dtype": "uint8"}}, {"name": "resnet_v1_50/block1/unit_1/bottleneck_v1/conv2/weights", "shape": [3, 3, 64, 64], "dtype": "float32", "quantization": {"min": -0.5909775232567507, "scale": 0.004075707056943108, "dtype": "uint8"}}, {"name": "resnet_v1_50/block1/unit_1/bottleneck_v1/conv1/Conv2D_bias", "shape": [64], "dtype": "float32", "quantization": {"min": -4.19940580480239, "scale": 0.03414151060814951, "dtype": "uint8"}}, {"name": "resnet_v1_50/block1/unit_1/bottleneck_v1/conv1/weights", "shape": [1, 1, 64, 64], "dtype": "float32", "quantization": {"min": -3.1349882252076093, "scale": 0.017711797882528867, "dtype": "uint8"}}, {"name": "resnet_v1_50/block1/unit_3/bottleneck_v1/conv3/Conv2D_bias", "shape": [256], "dtype": "float32", "quantization": {"min": -1.9803524480146522, "scale": 0.01960744998034309, "dtype": "uint8"}}, {"name": "resnet_v1_50/block1/unit_3/bottleneck_v1/conv3/weights", "shape": [1, 1, 64, 256], "dtype": "float32", "quantization": {"min": -1.7067948528364594, "scale": 0.014105742585425284, "dtype": "uint8"}}, {"name": "resnet_v1_50/block1/unit_3/bottleneck_v1/conv2/Conv2D_bias", "shape": [64], "dtype": "float32", "quantization": {"min": -0.4311714499604468, "scale": 0.007699490177865122, "dtype": "uint8"}}, {"name": "resnet_v1_50/block1/unit_3/bottleneck_v1/conv2/weights", "shape": [3, 3, 64, 64], "dtype": "float32", "quantization": {"min": -0.44998819617664115, "scale": 0.0035713348902908027, "dtype": "uint8"}}, {"name": "resnet_v1_50/block1/unit_3/bottleneck_v1/conv1/Conv2D_bias", "shape": [64], "dtype": "float32", "quantization": {"min": -2.880045215288798, "scale": 0.015158132712046305, "dtype": "uint8"}}, {"name": "resnet_v1_50/block1/unit_3/bottleneck_v1/conv1/weights", "shape": [1, 1, 256, 64], "dtype": "float32", "quantization": {"min": -1.04358649429153, "scale": 0.005765671239179724, "dtype": "uint8"}}, {"name": "resnet_v1_50/block2/unit_1/bottleneck_v1/conv3/Conv2D_bias", "shape": [512], "dtype": "float32", "quantization": {"min": -3.9047780850354363, "scale": 0.030269597558414234, "dtype": "uint8"}}, {"name": "resnet_v1_50/block2/unit_1/bottleneck_v1/conv3/weights", "shape": [1, 1, 128, 512], "dtype": "float32", "quantization": {"min": -3.249795592064951, "scale": 0.02538902806300743, "dtype": "uint8"}}, {"name": "resnet_v1_50/block2/unit_1/bottleneck_v1/conv2/Conv2D_bias", "shape": [128], "dtype": "float32", "quantization": {"min": -2.412433915979722, "scale": 0.028719451380710977, "dtype": "uint8"}}, {"name": "resnet_v1_50/block2/unit_1/bottleneck_v1/conv2/weights", "shape": [3, 3, 128, 128], "dtype": "float32", "quantization": {"min": -0.5692417228923125, "scale": 0.003513837795631558, "dtype": "uint8"}}, {"name": "resnet_v1_50/block2/unit_1/bottleneck_v1/conv1/Conv2D_bias", "shape": [128], "dtype": "float32", "quantization": {"min": -2.4099035365908756, "scale": 0.018396210202983782, "dtype": "uint8"}}, {"name": "resnet_v1_50/block2/unit_1/bottleneck_v1/conv1/weights", "shape": [1, 1, 256, 128], "dtype": "float32", "quantization": {"min": -0.7623375125959807, "scale": 0.0050153783723419785, "dtype": "uint8"}}, {"name": "resnet_v1_50/block2/unit_4/bottleneck_v1/conv3/Conv2D_bias", "shape": [512], "dtype": "float32", "quantization": {"min": -2.6647493960810644, "scale": 0.02202272228166169, "dtype": "uint8"}}, {"name": "resnet_v1_50/block2/unit_4/bottleneck_v1/conv3/weights", "shape": [1, 1, 128, 512], "dtype": "float32", "quantization": {"min": -1.519942569732666, "scale": 0.014901397742477118, "dtype": "uint8"}}, {"name": "resnet_v1_50/block2/unit_4/bottleneck_v1/conv2/Conv2D_bias", "shape": [128], "dtype": "float32", "quantization": {"min": -1.0369133159226063, "scale": 0.011650711414860744, "dtype": "uint8"}}, {"name": "resnet_v1_50/block2/unit_4/bottleneck_v1/conv2/weights", "shape": [3, 3, 128, 128], "dtype": "float32", "quantization": {"min": -0.3580835247741026, "scale": 0.003285169952055987, "dtype": "uint8"}}, {"name": "resnet_v1_50/block2/unit_4/bottleneck_v1/conv1/Conv2D_bias", "shape": [128], "dtype": "float32", "quantization": {"min": -3.1305968527700387, "scale": 0.015652984263850193, "dtype": "uint8"}}, {"name": "resnet_v1_50/block2/unit_4/bottleneck_v1/conv1/weights", "shape": [1, 1, 512, 128], "dtype": "float32", "quantization": {"min": -0.513388588849236, "scale": 0.004753598044900333, "dtype": "uint8"}}, {"name": "resnet_v1_50/block3/unit_1/bottleneck_v1/conv3/Conv2D_bias", "shape": [1024], "dtype": "float32", "quantization": {"min": -2.816588948754703, "scale": 0.026824656654806697, "dtype": "uint8"}}, {"name": "resnet_v1_50/block3/unit_1/bottleneck_v1/conv3/weights", "shape": [1, 1, 256, 1024], "dtype": "float32", "quantization": {"min": -9.03615992863973, "scale": 0.05223213831583659, "dtype": "uint8"}}, {"name": "resnet_v1_50/block3/unit_1/bottleneck_v1/conv2/Conv2D_bias", "shape": [256], "dtype": "float32", "quantization": {"min": -2.4341121561387005, "scale": 0.02135186101876053, "dtype": "uint8"}}, {"name": "resnet_v1_50/block3/unit_1/bottleneck_v1/conv2/weights", "shape": [3, 3, 256, 256], "dtype": "float32", "quantization": {"min": -0.4532583881826962, "scale": 0.0037771532348558016, "dtype": "uint8"}}, {"name": "resnet_v1_50/block3/unit_1/bottleneck_v1/conv1/Conv2D_bias", "shape": [256], "dtype": "float32", "quantization": {"min": -2.4375696911531337, "scale": 0.01504672648859959, "dtype": "uint8"}}, {"name": "resnet_v1_50/block3/unit_1/bottleneck_v1/conv1/weights", "shape": [1, 1, 512, 256], "dtype": "float32", "quantization": {"min": -0.464691244504031, "scale": 0.003442157366696526, "dtype": "uint8"}}, {"name": "resnet_v1_50/block3/unit_6/bottleneck_v1/conv3/Conv2D_bias", "shape": [1024], "dtype": "float32", "quantization": {"min": -2.4733405365663415, "scale": 0.018596545387716854, "dtype": "uint8"}}, {"name": "resnet_v1_50/block3/unit_6/bottleneck_v1/conv3/weights", "shape": [1, 1, 256, 1024], "dtype": "float32", "quantization": {"min": -1.0508004964566697, "scale": 0.01106105785743863, "dtype": "uint8"}}, {"name": "resnet_v1_50/block3/unit_6/bottleneck_v1/conv2/Conv2D_bias", "shape": [256], "dtype": "float32", "quantization": {"min": -1.848892319903654, "scale": 0.011137905541588278, "dtype": "uint8"}}, {"name": "resnet_v1_50/block3/unit_6/bottleneck_v1/conv2/weights", "shape": [3, 3, 256, 256], "dtype": "float32", "quantization": {"min": -0.9407109335357068, "scale": 0.006229873732024548, "dtype": "uint8"}}, {"name": "resnet_v1_50/block3/unit_6/bottleneck_v1/conv1/Conv2D_bias", "shape": [256], "dtype": "float32", "quantization": {"min": -1.6981759176534765, "scale": 0.01054767650716445, "dtype": "uint8"}}, {"name": "resnet_v1_50/block3/unit_6/bottleneck_v1/conv1/weights", "shape": [1, 1, 1024, 256], "dtype": "float32", "quantization": {"min": -0.19513574786045973, "scale": 0.0025342304916942822, "dtype": "uint8"}}, {"name": "resnet_v1_50/block4/unit_1/bottleneck_v1/conv3/Conv2D_bias", "shape": [2048], "dtype": "float32", "quantization": {"min": -6.224282629349652, "scale": 0.04292608709896312, "dtype": "uint8"}}, {"name": "resnet_v1_50/block4/unit_1/bottleneck_v1/conv3/weights", "shape": [1, 1, 512, 2048], "dtype": "float32", "quantization": {"min": -4.463193287568934, "scale": 0.03381207036037071, "dtype": "uint8"}}, {"name": "resnet_v1_50/block4/unit_1/bottleneck_v1/conv2/Conv2D_bias", "shape": [512], "dtype": "float32", "quantization": {"min": -1.7070223920485554, "scale": 0.017242650424732883, "dtype": "uint8"}}, {"name": "resnet_v1_50/block4/unit_1/bottleneck_v1/conv2/weights", "shape": [3, 3, 512, 512], "dtype": "float32", "quantization": {"min": -0.38330545285168816, "scale": 0.003042106768664192, "dtype": "uint8"}}, {"name": "resnet_v1_50/block4/unit_1/bottleneck_v1/conv1/Conv2D_bias", "shape": [512], "dtype": "float32", "quantization": {"min": -2.328689666589101, "scale": 0.012452885917588776, "dtype": "uint8"}}, {"name": "resnet_v1_50/block4/unit_1/bottleneck_v1/conv1/weights", "shape": [1, 1, 1024, 512], "dtype": "float32", "quantization": {"min": -0.3040279865264892, "scale": 0.0025548570296343633, "dtype": "uint8"}}, {"name": "resnet_v1_50/displacement_bwd_2/Conv2D_bias", "shape": [32], "dtype": "float32", "quantization": {"min": -0.07651347815990449, "scale": 0.000380664070447286, "dtype": "uint8"}}, {"name": "resnet_v1_50/displacement_bwd_2/weights", "shape": [1, 1, 2048, 32], "dtype": "float32", "quantization": {"min": -0.9563007331361958, "scale": 0.006091087472205069, "dtype": "uint8"}}, {"name": "resnet_v1_50/offset_2/Conv2D_bias", "shape": [34], "dtype": "float32", "quantization": {"min": -0.04183483019325079, "scale": 0.0002664638865812152, "dtype": "uint8"}}, {"name": "resnet_v1_50/offset_2/weights", "shape": [1, 1, 2048, 34], "dtype": "float32", "quantization": {"min": -0.8465029080708821, "scale": 0.006224286088756486, "dtype": "uint8"}}, {"name": "resnet_v1_50/heatmap_2/Conv2D_bias", "shape": [17], "dtype": "float32", "quantization": {"min": -0.140382781624794, "scale": 0.00039915660140561125, "dtype": "uint8"}}, {"name": "resnet_v1_50/heatmap_2/weights", "shape": [1, 1, 2048, 17], "dtype": "float32", "quantization": {"min": -0.13881859051830628, "scale": 0.0009707593742538901, "dtype": "uint8"}}]}]}